Assets/Flappy Bird/Trained Models/FlawlessFlappyBird.onnx (onnx, 76635 bytes, 6 tensors)

network_body._body_endoder.seq_layers.0.weight f4 [128, 5]
-0.9918523 -0.61087495 0.44991952 0.17263046 -0.45587417 0.29140377 0.66129816 0.84576637
-0.86199147 -0.45693958 -0.13539548 -0.2715764 -0.69407743 0.2766654 0.17568709 -0.32627335
-0.031702038 -0.28902528 -0.5938368 -0.015904766 -0.13931048 -0.48963717 -0.6025426 0.01521023
0.2191264 0.032356218 -0.20992012 0.28695875 0.59529454 -0.28554183 -0.3454965 -0.5457266
-0.23837228 -0.5227335 0.5398277 -0.04138375 0.7589046 1.0286118 -0.059675395 0.46072817
-0.33938992 0.53353477 0.024813456 -0.53482187 -0.15283847 -0.42184648 0.44102994 0.19468251
0.20943029 -0.24565423 -0.23637903 0.2833344 0.48194906 -0.13885988 0.2002866 0.14223492
0.22656299 0.17021172 0.77215433 -0.36330062 0.43459764 0.55216324 -0.08707034 -0.34373572
-0.8740103 -0.11141346 0.90840447 0.035605222 -0.36588836 0.9540876 0.045754418 -0.11732453
1.017661 0.8912882 -0.040085085 -0.094653346 0.2509106 0.035415515 0.4225688 -1.0657313
0.65405464 -0.26305717 -0.004944822 0.52134335 0.2219432 0.12635694 0.7324997 0.23746781
-0.048415113 0.41310495 0.5079442 -0.23034565 -0.34269333 -0.4613012 -0.11254317 0.40606427
-0.053674337 0.28484735 0.32132182 0.06517497 -0.6943957 -0.2540836 0.76772153 -0.74595714
-0.7314811 -0.14145379 0.42081618 -0.39323807 0.48635232 0.22834522 0.37707913 -0.5650059
0.13841149 -0.019015297 0.16728193 -0.4320271 0.6849672 0.4322237 -0.4131837 0.030257355
-0.0021925464 -0.18445644 0.35565278 0.5684784 0.28149462 0.3510053 -0.32578334 0.971323
-0.09590848 -0.5138169 0.6931812 0.52341384 0.15081994 -0.041576073 0.28111604 0.22424997
0.27537176 -0.1672722 -0.67783296 0.6908019 0.7034623 0.17051436 -0.13611387 0.13911352
0.023041483 -0.2900121 -0.4820774 0.5738435 -0.044342376 -0.003925999 0.4999165 0.21722281
0.7244414 -0.2964917 0.059927825 -0.28076807 0.107512735 -0.18170002 0.33838257 -0.27646524
-0.7531459 -0.3617205 -0.5706835 0.55288833 0.42897448 -0.17211644 -0.027806578 1.2706509
-0.23406592 0.55170345 0.24115849 -0.44017962 0.6785512 0.35261428 -0.688896 -0.033649754
-0.4402582 0.35968706 0.54470056 0.2172757 -0.5870697 0.83712816 0.5349702 -0.17968597
0.31713498 0.20785214 -0.2720652 -0.43901905 -0.86398077 -0.55363965 -0.2325921 0.6647437
-0.9423551 -0.19054641 -0.28236264 -0.154455 -0.27661172 0.85102487 0.17603637 -0.72105426
0.07647682 -0.32877803 -0.5502013 -0.4175714 -0.44326055 0.259968 -0.45809135 0.081599966
0.22440338 0.46880087 0.15172817 -0.1640882 0.2740841 -0.90389615 0.680116 -0.032912195
0.26866376 0.032389205 0.749772 -0.22617908 -0.5111918 0.005692042 -0.3730965 -0.06441093
-0.1387367 0.3396511 -0.2881834 -0.8091695 0.67083794 0.23676589 0.20406279 0.051633965
-0.36017728 -0.124234416 -1.14475 0.054410666 -0.17840685 0.23085721 0.2490875 0.24855284
-0.01380656 0.21498491 0.11913963 -0.63554114 -0.49920896 -0.5555046 -0.08180455 -0.50650406
-0.057386287 -0.22913717 -0.38037193 0.1658475 0.29200825 0.10943412 0.06595623 0.27868655
00000000: 08ea 7dbf 4d62 1cbf da5b e63e 0ac6 303e
00000010: 5768 e9be e032 953e d64a 293f 2584 583f
00000020: 79ab 5cbf fcf3 e9be 1da5 0abe 100c 8bbe
00000030: 0faf 31bf 16a7 8d3e 51e7 333e 4d0d a7be
00000040: ffd9 01bd 1ffb 93be b005 18bf b64a 82bc
00000050: 68a7 0ebe b9b1 fabe 3b40 1abf 5434 793c
00000060: ac62 603e f487 043d 4df5 56be 42ec 923e
00000070: 3965 183f 8a32 92be ebe4 b0be bdb4 0bbf
00000080: dd17 74be ddd1 05bf 2632 0a3f 0282 29bd
00000090: 9247 423f 8da9 833f 306e 74bd 90e4 eb3e
000000a0: 84c4 adbe bc95 083f 9745 cb3c 16ea 08bf
000000b0: b081 1cbe 43fc d7be adce e13e da5a 473e
000000c0: e574 563e c88c 7bbe 580d 72be 3511 913e
000000d0: 07c2 f63e 4931 0ebe ee17 4d3e 08a6 113e
000000e0: 2100 683e fb4b 2e3e e8ab 453f 8a02 babe
000000f0: 9583 de3e 925a 0d3f ef51 b2bd 21fe afbe
00000100: 24bf 5fbf bd2c e4bd 328d 683f c8d6 113d
00000110: b855 bbbe 163f 743f fc68 3b3d d847 f0bd
00000120: b742 823f 772b 643f 4230 24bd 9dd9 c1bd
00000130: 5b77 803e dc0f 113d f05a d83e e269 88bf
00000140: 2070 273f 6eaf 86be 2c08 a2bb c276 053f
00000150: 1445 633e b763 013e 1a85 3b3f c32a 733e
00000160: ed4e 46bd 7e82 d33e a208 023f bbdf 6bbe
00000170: 8075 afbe ac2f ecbe 097d e6bd a8e7 cf3e
00000180: 9fd9 5bbd 83d7 913e 4b84 a43e 747a 853d
00000190: ebc3 31bf 3f17 82be 6689 443f 0cf7 3ebf
000001a0: 5842 3bbf 43d9 10be 3875 d73e 8056 c9be
000001b0: 2c03 f93e 54d3 693e 8410 c13e 3aa4 10bf
000001c0: bebb 0d3e f8c5 9bbc f44b 2b3e a832 ddbe
000001d0: 035a 2f3f 6d4c dd3e d08c d3be 46de f73c
000001e0: d3b0 0fbb 26e2 3cbe 1f18 b63e cd87 113f
000001f0: 1020 903e f7b6 b33e 13cd a6be a0a8 783f
00000200: aa6b c4bd 8189 03bf 5374 313f 73fe 053f
00000210: 8b70 1a3e ac4b 2abd 71ee 8f3e c9a1 653e
00000220: 87fd 8c3e 6749 2bbe 7686 2dbf 65d8 303f
00000230: 1b16 343f 519b 2e3e 6f61 0bbe c673 0e3e
00000240: 7ec1 bc3c 777c 94be d9d2 f6be 68e7 123f
00000250: 5aa0 35bd aba5 80bb 0ef5 ff3e a86f 5e3e
00000260: fe74 393f c3cd 97be e176 753d d5c0 8fbe
00000270: a32f dc3d 920f 3abe 7b40 ad3e da8c 8dbe
00000280: 2bce 40bf 6e33 b9be 5018 12bf 178a 0d3f
00000290: 8ba2 db3e 4b3f 30be 9fca e3bc b0a4 a23f
000002a0: faae 6fbe 703c 0d3f 40f2 763e 395f e1be
000002b0: 88b5 2d3f dc89 b43e 7d5b 30bf 53d4 09bd
000002c0: 8669 e1be e728 b83e 7f71 0b3f 857d 5e3e
000002d0: 334a 16bf 084e 563f cff3 083f 99ff 37be
000002e0: 845f a23e 31d7 543e 214c 8bbe 1bc7 e0be
000002f0: d82d 5dbf 54bb 0dbf a02c 6ebe a52c 2a3f
00000300: 2f3e 71bf 991e 43be d691 90be 7429 1ebe
00000310: 0da0 8dbe c4dc 593f e142 343e 0397 38bf
00000320: e19f 9c3d 9855 a8be fed9 0cbf ebcb d5be
00000330: 0cf3 e2be 871a 853e f38a eabe e21d a73d
00000340: 00ca 653e ab06 f03e a15e 1b3e bd06 28be
00000350: c054 8c3e bd65 67bf 151c 2e3f f0ce 06bd
00000360: 4c8e 893e 8baa 043d 0ff1 3f3f 7d9b 67be
00000370: 77dd 02bf 4f84 ba3b 8106 bfbe e1e9 83bd
00000380: fe10 0ebe c0e6 ad3e c68c 93be bb25 4fbf
00000390: 09bc 2b3f c272 723e d6f5 503e 237e 533d
000003a0: 2869 b8be 9d6e febd 2b87 92bf b8dd 5e3d
000003b0: 49b0 36be d565 6c3e cb10 7f3e a384 7e3e
000003c0: e934 62bc 0125 5c3e 7aff f33d d3b2 22bf
000003d0: 5198 ffbe 8d35 0ebf 2589 a7bd 40aa 01bf
000003e0: e20d 6bbd efa2 6abe 1cc0 c2be edd3 293e
000003f0: 1b82 953e ff1e e03d 0f14 873d 01b0 8e3e

network_body._body_endoder.seq_layers.0.bias f4 [128]
-0.0787089 0.21431968 -0.048536517 0.03162149 -0.08301315 -0.056105945 -0.038461477 0.15612876
0.2131999 0.06823362 0.115640625 -0.0873583 0.15812185 0.18689092 0.0002308544 0.069189034
-0.022800632 0.08478578 0.07776238 -0.051280133 0.11014981 -0.11158645 -0.08855285 0.17521219
-0.083451025 0.032163404 0.08587139 0.1452948 0.052586284 -0.078904554 -0.03883958 0.02188905
-0.047134016 0.049627837 -0.018951887 -0.05224406 0.16115469 0.07437594 0.13807036 -0.04952704
0.046934135 -0.07690066 -0.0051616165 0.018057106 -0.069905624 0.0143509125 0.019283812 -0.12038712
0.16731293 -0.040330715 0.05588231 -0.10587495 -0.08066365 0.0003588689 -0.004239681 0.10935381
0.07686616 0.26763102 -0.04407223 0.12390709 -0.12981994 0.21985339 -0.089197546 0.15051675
0.15189318 -0.012358136 -0.04873561 0.02371235 0.06744498 0.09490464 0.06013761 0.13689545
0.00028688405 0.15502596 0.038386147 -0.002302086 0.15086626 0.15145306 0.13731375 0.016841749
-0.11427141 0.07112598 -0.13113512 -0.07215444 0.10201939 0.056012634 0.16267458 0.1195915
0.10376135 -0.059820067 0.122448586 0.15286773 -0.06994342 0.09067794 0.05816684 -0.102759756
-0.02015535 0.1470746 -0.07820774 0.10755666 0.12313922 0.12255548 0.12215511 -0.043342367
0.04244142 0.12723841 -0.04840494 -0.033225544 -0.047019344 0.008434574 0.06779271 -0.101243295
0.12411586 0.17555057 0.029604012 0.053253848 0.047032055 0.06934039 0.12559374 0.21592514
-0.016821738 0.15007047 0.09332895 -0.08658518 -0.09968599 -0.115162544 0.122212514 -0.017592898
00000000: 2232 a1bd 9e76 5b3e 3ace 46bd 8985 013d
00000010: cc02 aabd 59cf 65bd c889 1dbd 38e0 1f3e
00000020: 1351 5a3e 11be 8b3d fed4 ec3d e9e8 b2bd
00000030: b2ea 213e 5560 3f3e 8211 7239 fbb2 8d3d
00000040: 64c8 babc 2ba4 ad3d e241 9f3d 1e0b 52bd
00000050: 3996 e13d 7087 e4bd 325b b5bd d36a 333e
00000060: 5fe8 aabd c6bd 033d 57dd af3d 29c8 143e
00000070: b764 573d b698 a1bd 4016 1fbd aa50 b33c
00000080: 990f 41bd 8f46 4b3d fd40 9bbc defd 55bd
00000090: bc05 253e 6a52 983d 5162 0d3e dedc 4abd
000000a0: 023e 403d 187e 9dbd c722 a9bb 7fec 933c
000000b0: ae2a 8fbd 1720 6b3c 16f9 9d3c 868d f6bd
000000c0: 1554 2b3e d231 25bd d9e4 643d f7d4 d8bd
000000d0: fc32 a5bd 9226 bc39 06ed 8abb e4f4 df3d
000000e0: 016c 9d3d ef06 893e 1585 34bd 00c3 fd3d
000000f0: 85ef 04be 3f21 613e 34ad b6bd 1021 1a3e
00000100: e389 1b3e c779 4abc fe9e 47bd 6740 c23c
00000110: 9820 8a3d 5d5d c23d db52 763d 522e 0c3e
00000120: ed68 9639 20bf 1e3e cb3a 1d3d 98de 16bb
00000130: af7c 1a3e 8316 1b3e fa9b 0c3e b5f7 893c
00000140: 2107 eabd 7faa 913d 4948 06be b5c5 93bd
00000150: 8bef d03d 816d 653d 2a94 263e 63ec f43d
00000160: d580 d43d e305 75bd 53c6 fa3d 5c89 1c3e
00000170: 7f3e 8fbd 5bb5 b93d 5a40 6e3d b573 d2bd
00000180: d51c a5bc b99a 163e 612b a0bd ab46 dc3d
00000190: 6a30 fc3d 5efe fa3d 752c fa3d c487 31bd
000001a0: 0ed7 2d3d c94a 023e 4244 46bd 8217 08bd
000001b0: 5b97 40bd 2b31 0a3c e8d6 8a3d a558 cfbd
000001c0: 7530 fe3d 87c3 333e 1d84 f23c b520 5a3d
000001d0: afa4 403d 5602 8e3d a59b 003e 7b1b 5d3e
000001e0: becd 89bc 13ac 193e 4023 bf3d 9253 b1bd
000001f0: 2b28 ccbd 57da ebbd 8e4a fa3d fb1e 90bc

network_body._body_endoder.seq_layers.2.weight f4 [128, 128]
-0.14427282 -0.09866921 -0.0818066 0.057992194 0.13254309 0.14074925 -0.15197417 0.035093464
-0.10332361 0.04429054 0.034399547 -0.09968385 -0.09719529 -0.117444016 0.07176658 -0.14449424
-0.043939143 -0.016995057 0.0665207 -0.04868528 0.034989502 0.100367725 -0.06355203 -0.108392775
0.17468192 0.006686903 -0.13601321 0.034386028 -0.10617187 0.20919938 0.08574656 0.18775067
0.1490001 -0.04388069 -0.07133225 -0.0223743 0.029564025 -0.05930974 -0.14440931 -0.056506168
-0.19776253 -0.219705 0.08807055 -0.07257202 0.050791673 -0.064870946 0.06585741 0.08286379
0.011733153 -0.023444487 -0.14688578 0.14559482 0.033860736 -0.05997197 0.21045078 0.08385565
0.03869774 -0.11282548 -0.0028871736 -0.033549055 0.11999024 -0.10607626 -0.17565992 0.0320703
0.051894598 0.0515804 -0.051287476 0.024542157 -0.08616554 -0.09549138 0.07076534 -0.006767521
0.027725374 0.10076317 -0.16919059 0.028692868 -0.038413513 0.07051091 -0.0068953685 -0.023730682
-0.029766254 0.08052988 -0.07778702 0.012470661 0.057002977 0.050314523 -0.039600387 0.067246035
0.031562135 0.24604881 -0.04210672 -0.12995026 0.06403244 -0.018570919 0.07300083 -0.06500627
0.08732147 -0.048248626 0.05548366 -0.036746606 0.0054440484 0.1348113 -0.05035616 0.05309283
-0.0010555383 0.011136467 -0.059712138 -0.2768927 -0.03870981 0.075477876 0.047181234 -0.2424076
-0.26693857 0.026780594 0.022707174 0.047626942 0.12816912 -0.09017814 0.11189767 -0.17652562
0.088158466 -0.1277768 -0.09103821 0.05904764 0.008198289 -0.18532436 0.14626284 0.113757536
0.07581405 -0.12710269 -0.30213836 0.058885697 -0.08605296 0.05115842 -0.035011265 0.22505456
0.26612207 0.13508324 -0.06927865 0.10251301 0.18278112 0.115459435 0.20743224 0.123163015
0.039492637 0.069425136 -0.03020264 0.009554437 0.11318365 0.096575595 -0.1352067 0.10813146
0.007323874 -0.07003562 -0.07583836 0.25629544 0.019958582 -0.0794869 0.07170097 0.023384118
-0.19478229 -0.013320714 -0.20832811 -0.13182323 0.17426825 0.21545312 0.047410976 -0.031352505
-0.10216447 -0.09883292 0.01902102 0.20259362 -0.023615131 0.04688142 0.15574618 -0.116526656
0.08742614 0.055460576 0.021928126 0.02647983 0.04443774 0.02292452 0.008603596 0.025443573
0.14384937 0.32890278 -0.08662847 -0.0814015 0.021047592 0.12710561 0.039908823 0.07164605
0.1678666 -0.038724728 0.09530473 0.15680806 0.039391622 0.061075553 -0.07994697 -0.16232352
0.021435784 0.12835199 -0.026931744 -0.15992557 0.057056222 -0.0035941026 0.076775245 -0.11370046
-0.012002499 0.033461753 -0.2788186 0.019441403 0.16556025 0.07516041 0.19380334 0.09837585
-0.028401282 -0.16820261 0.029341415 0.00027212588 -0.08280726 0.008322075 -0.096917 0.008465307
-0.031722866 0.13749292 0.0021969022 0.26697412 0.07430027 -0.0017157961 -0.038532794 -0.06464435
0.06259207 0.21052237 -0.18799636 -0.23035726 -0.19797815 0.06625689 0.06846268 -0.023782996
0.01130579 -0.043773625 -0.13156682 -0.11587773 0.015904443 0.1257339 0.15512435 -0.023734566
-0.05754402 0.025144361 -0.13792191 -0.0351213 -0.03218761 -0.045362588 -0.019397987 0.07047534
00000000: 41bc 13be 1513 cabd 388a a7bd 3989 6d3d
00000010: 60b9 073e 9220 103e 1e9f 1bbe 2abe 0f3d
00000020: 549b d3bd ff69 353d 8ae6 0c3d 0c27 ccbd
00000030: 530e c7bd 7d86 f0bd 5bfa 923d 4cf6 13be
00000040: 88f9 33bd 3839 8bbc 013c 883d 376a 47bd
00000050: 2751 0f3d 988d cd3d 9127 82bd 08fd ddbd
00000060: d1df 323e cf1d db3b 0c47 0bbe 5dd8 0c3d
00000070: a370 d9bd 5d38 563e e49b af3d b641 403e
00000080: 7b93 183e 3dbc 33bd a516 92bd 4f4a b7bc
00000090: 4130 f23c c5ee 72bd 09e0 13be 0373 67bd
000000a0: 4382 4abe 59fa 60be 555e b43d a4a0 94bd
000000b0: ee0a 503d 0fdb 84bd 40e0 863d 7eb4 a93d
000000c0: 693c 403c a70e c0bc 3a69 16be cf16 153e
000000d0: 8eb1 0a3d 2ba5 75bd 6980 573e 83bc ab3d
000000e0: 8581 1e3d 0c11 e7bd bc36 3dbb bc6a 09bd
000000f0: 71bd f53d 833e d9bd 32e0 33be 265c 033d
00000100: 6e8f 543d f845 533d d112 52bd a20c c93c
00000110: 8f77 b0bd fc90 c3bd 6bed 903d 15c2 ddbb
00000120: 5320 e33c ec5c ce3d 4c40 2dbe 4e0d eb3c
00000130: 7d57 1dbd 0668 903d 8bf2 e1bb d966 c2bc
00000140: 5cd8 f3bc daec a43d cd4e 9fbd be51 4c3c
00000150: f47b 693d 9a16 4e3d 0434 22bd 4ab8 893d
00000160: 4c47 013d 38f4 7b3e 1978 2cbd ae11 05be
00000170: 7123 833d 0a22 98bc 7681 953d 0222 85bd
00000180: 99d5 b23d 5aa0 45bd d642 633d 9c83 16bd
00000190: fd63 b23b f90b 0a3e 4342 4ebd de77 593d
000001a0: fd59 8aba ba75 363c b794 74bd e1c4 8dbe
000001b0: 2d8e 1ebd 2594 9a3d 1c41 413d b339 78be
000001c0: 2cac 88be fa62 db3c 6504 ba3c 7814 433d
000001d0: c43e 033e 51af b8bd 9b2a e53d 22c3 34be
000001e0: 6d8c b43d ecd7 02be 3e72 babd f0db 713d
000001f0: 1e52 063c abc5 3dbe edc5 153e b6f9 e83d
00000200: 6644 9b3d 3527 02be e1b1 9abe 2132 713d
00000210: 893c b0bd 7e8b 513d f967 0fbd b474 663e
00000220: 2741 883e 4353 0a3e f7e1 8dbd 57f2 d13d
00000230: f92a 3b3e ff75 ec3d 1e69 543e e43c fc3d
00000240: 08c3 213d c42e 8e3d 876b f7bc 378a 1c3c
00000250: d4cc e73d 6dc9 c53d a073 0abe 0774 dd3d
00000260: 1cfd ef3b d66e 8fbd 2451 9bbd 2839 833e
00000270: 2e80 a33c 07ca a2bd f5d7 923d 0d90 bf3c
00000280: 0275 47be 203f 5abc f753 55be abfc 06be
00000290: 6073 323e be9f 5c3e 0332 423d 7c6b 00bd
000002a0: 9b3b d1bd ea68 cabd f8d1 9b3c b474 4f3e
000002b0: 8574 c1bc bb06 403d ed7b 1f3e 87a5 eebd
000002c0: 7a0c b33d a12a 633d 9da2 b33c 3aec d83c
000002d0: 5904 363d 34cc bb3c 19f6 0c3c 0a6f d03c
000002e0: 404d 133e f265 a83e 446a b1bd d4b5 a6bd
000002f0: 006c ac3c f927 023e 6f77 233d 2abb 923d
00000300: 39e5 2b3e d29d 1ebd 202f c33d 4b92 203e
00000310: 1c59 213d 5c2a 7a3d 3dbb a3bd 2338 26be
00000320: 199a af3c b46e 033e f69f dcbc 87c3 23be
00000330: c9b3 693d 098b 6bbb 573c 9d3d c9db e8bd
00000340: 21a6 44bc 310f 093d 50c1 8ebe 9443 9f3c
00000350: a088 293e b3ed 993d 6274 463e 4779 c93d
00000360: cea9 e8bc 4e3d 2cbe 685d f03c 1eac 8e39
00000370: da96 a9bd 5059 083c 6c7c c6bd 12b2 0a3c
00000380: d6ef 01bd f2ca 0c3e e7f9 0f3b d5b0 883e
00000390: bd2a 983d 90e4 e0ba 90d4 1dbd 4264 84bd
000003a0: 4530 803d 2d93 573e 1e82 40be c6e2 6bbe
000003b0: c9ba 4abe b1b1 873d 2936 8c3d 8fd4 c2bc
000003c0: ec3b 393c f94b 33bd 74b9 06be 4e51 edbd
000003d0: 094a 823c 63c0 003e ebd8 1e3e fe6e c2bc
000003e0: 47b3 6bbd 8cfb cd3c 673b 0dbe 5adb 0fbd
000003f0: 28d7 03bd 1fce 39bd 87e8 9ebc 6055 903d

network_body._body_endoder.seq_layers.2.bias f4 [128]
-0.059454657 0.1609281 -0.0905297 -0.03229541 0.10602782 0.05735289 0.03964126 -0.027571509
0.016226636 0.09140074 -0.08780967 0.11082932 -0.06966156 -0.012763705 0.1949722 0.019570934
0.08163696 0.14907022 -0.004044992 0.09393359 0.05530647 0.08368678 -0.03220558 0.12243561
0.026181677 -0.022182422 -0.011502894 -0.07874153 0.06846178 0.026073474 -0.05823839 -0.02012529
0.1451163 0.08460305 0.097197875 -0.04797504 0.040057424 0.11828843 -0.070169784 -0.046886146
-0.00045091793 0.041041058 0.16948318 -0.05242309 -0.047419723 -0.095926605 -0.051860165 0.13776658
0.096409164 -0.028405607 0.02088064 0.0065732617 -0.104080334 0.2028129 -0.081979565 0.15219478
-0.03597438 -0.06373634 -0.09178475 0.11120033 -0.07588228 0.18301721 -0.05182744 0.1257788
0.022336917 0.04507933 0.05775041 0.07036737 -0.06567658 0.16302212 0.051137257 0.13068575
-0.049922086 -0.020545289 -0.035202257 -0.068022445 -0.074584745 -0.018039556 0.000867235 0.16648994
0.14201817 -0.006748901 -0.045399565 0.1930248 0.016953003 0.07447359 -0.071681075 0.11284532
0.07831422 0.100866035 0.07827691 0.13542928 -0.014226372 -0.03410246 -0.026021287 -0.078123406
-0.0385828 0.15083593 -0.060059574 0.08911858 -0.026589561 0.046405375 -0.037395086 0.14633377
-0.009453017 -0.052801695 -0.019501315 0.19322027 -0.012279657 0.013556486 -0.07030362 -0.04445471
0.15356337 -0.05464096 0.031110154 -0.073598795 0.18200493 -0.06267161 0.12310063 0.09712638
0.0034349586 -0.015180226 -0.029075503 0.088539004 -0.10245669 -0.04573563 0.010084421 0.07779649
00000000: ba86 73bd 56ca 243e a367 b9bd 3148 04bd
00000010: 1d25 d93d ddea 6a3d e05e 223d a5dd e1bc
00000020: b9ed 843c 5030 bb3d 8ed5 b3bd 7cfa e23d
00000030: b8aa 8ebd dc1e 51bc cba6 473e 3953 a03c
00000040: 4731 a73d dda5 183e da8b 84bb 4160 c03d
00000050: 0989 623d f963 ab3d 00ea 03bd 85bf fa3d
00000060: f57a d63c e9b7 b5bc a276 3cbc 3d43 a1bd
00000070: b135 8c3d 0a98 d53c 618b 6ebd cbdd a4bc
00000080: 5e99 143e 5d44 ad3d ae0f c73d 7a81 44bd
00000090: 4113 243d 3441 f23d 2db5 8fbd b00b 40bd
000000a0: 2e69 ecb9 ab1a 283d 008d 2d3e 98b9 56bd
000000b0: 2f3b 42bd 2b75 c4bd 536b 54bd af12 0d3e
000000c0: 2b72 c53d e0b2 e8bc e00d ab3c 8464 d73b
000000d0: 1228 d5bd 2fae 4f3e e7e4 a7bd f3d8 1b3e
000000e0: df59 13bd 3388 82bd a5f9 bbbd 00bd e33d
000000f0: 2b68 9bbd dd68 3b3e 0249 54bd 28cc 003e
00000100: e9fb b63c 1ba5 383d b28b 6c3d c51c 903d
00000110: 7181 86bd 45ef 263e 4d75 513d 7cd2 053e
00000120: 1a7b 4cbd 984e a8bc 3e30 10bd 5a4f 8bbd
00000130: e3bf 98bd b1c7 93bc 2857 633a 577c 2a3e
00000140: 366d 113e e325 ddbb e5f4 39bd 4ba8 453e
00000150: 06e1 8a3c 9c85 983d 87cd 92bd 721b e73d
00000160: 3563 a03d da92 ce3d a54f a03d f9ad 0a3e
00000170: bb15 69bc 05af 0bbd 982a d5bc 2aff 9fbd
00000180: 0009 1ebd bc74 1a3e 0701 76bd cd83 b63d
00000190: 5ad2 d9bc 9013 3e3d 972b 19bd 85d8 153e
000001a0: d4e0 1abc 9746 58bd 39c1 9fbc 89db 453e
000001b0: 9d30 49bc 061c 5e3c 58fb 8fbd 2416 36bd
000001c0: b73f 1d3e 33cf 5fbd b9da fe3c f7ba 96bd
000001d0: 805f 3a3e f959 80bd 2f1c fc3d 32ea c63d
000001e0: 0b1d 613b 7cb6 78bc c02f eebc f053 b53d
000001f0: d0d4 d1bd 4955 3bbd 2139 253c c453 9f3d

action_model._discrete_distribution.branches.0.weight f4 [5, 128]
-0.013381942 0.011628205 -0.028445024 -0.011770334 -0.012002317 0.016174356 -0.020643381 -0.01633028
0.0027289046 -0.016934292 -0.013492201 0.0008258149 -0.012562465 0.0025422627 0.0024402104 -0.0087044835
0.015574772 0.012782079 0.025998965 0.0059736376 3.0831317e-05 -0.002203897 -0.016723294 0.012100358
0.0059764003 0.028136568 -0.017810214 0.0031306075 0.028541801 -0.0071262144 -0.010432446 -0.0028506976
0.00027283488 0.013741119 0.01416304 -0.012540824 -0.000906771 0.015100896 -0.013855843 -0.0074340804
-0.01670764 0.026595177 0.022178598 -0.017223567 -0.012468921 -0.0141187515 -0.020171953 -0.002251782
0.0046862504 0.007659428 -0.0066550304 0.012901727 0.008527111 0.011351103 0.0008142371 0.029206298
-0.04353941 -0.019459765 0.00218903 0.03143382 -0.025813883 0.011068174 -0.018048752 0.006266921
-0.0032946363 0.014833448 0.008751852 0.0043002106 -0.016240422 0.006622857 0.010801107 0.014303608
-0.027217507 0.006568672 -0.013157107 -0.025319435 -0.030682785 -0.015484814 0.009051003 0.012372517
0.00910581 -0.008632291 -0.0043979893 0.015034525 0.012037412 0.015302774 -0.014454953 -0.005481542
0.007166893 0.0037906843 0.0062612575 0.010812027 0.025536042 -0.024037598 -0.0025562525 -0.019784648
0.030474808 -0.00040350322 -0.012473805 0.026003396 -0.004542607 0.010144788 -0.03322904 0.021955524
0.00041933413 0.016695542 -0.02429731 0.025159972 -0.045435958 0.014642198 -0.03119166 0.0083036935
0.03139683 -0.011922235 0.015813509 -0.023365907 0.026289921 -0.0004703477 0.005131075 0.0098560555
0.010756797 -0.022474216 0.01965972 0.009689555 0.0088102305 -0.024475116 0.016292578 0.0020233549
0.014851145 0.028033493 -0.0016927456 -0.0152749475 0.04280338 -0.03026936 0.0012963049 0.017726252
-0.029659798 -0.03370396 -0.012674294 0.040236756 -0.032300502 -0.0017861266 0.031430908 -0.002757176
0.018854745 0.0011904286 -0.040063106 -0.0016906356 0.013481898 0.038361933 -0.013889947 -7.738688e-05
0.002694397 -0.033259008 -0.0185597 -0.015682029 0.005323835 0.03804412 -0.0024758994 -0.012345871
-0.00039874474 0.01744119 -0.0015068103 0.019851878 0.03014128 -0.02061805 -0.019035324 -0.012212396
0.00023867271 -0.019082054 -0.007644795 -0.026405822 -0.025286961 -0.0073058917 -0.014944911 0.026527751
0.030765785 -0.03139436 0.00063583866 0.036842175 -0.030763514 0.011149861 -0.015620272 -0.014891603
0.009091654 -0.021926645 -0.018635457 -0.0023864384 -0.0128051415 0.020066863 -0.04042533 -0.007392235
0.020378985 0.03496994 0.0060841776 -0.014592421 -0.016979685 0.028326014 -0.02271557 0.0028143798
-0.036719233 -0.00069540786 0.009691665 0.00011273156 0.0067987847 -0.032587785 0.037510507 0.010903999
0.033130966 0.0001578957 -0.028641623 0.014231114 0.025416706 -0.02283248 -0.028074162 -0.0024489008
0.007992321 0.0030515627 0.0046984656 0.024637071 -0.02115435 -0.035927996 -0.03044344 -0.017902039
-0.017989814 0.014939924 -0.007524259 -0.009551403 0.021160651 -0.027408024 -0.0018108176 -0.009365497
0.038511727 -0.010592875 -0.028250277 0.029281767 -0.010789634 -0.017420335 -0.019505737 0.0050102435
0.017797915 5.4695083e-05 0.031258166 -0.015604021 0.0061920825 0.018267406 -0.008246861 0.015397357
0.024160523 -0.008730202 0.03575589 0.007836407 0.02054293 -0.033067353 -0.018736666 0.004256897
00000000: ef3f 5bbc 3a84 3e3c 8a05 e9bc 5cd8 40bc
00000010: 5ea5 44bc 1580 843c 4f1c a9bc 14c7 85bc
00000020: 6cd7 323b c9b9 8abc 650e 5dbc 807b 583a
00000030: ccd2 4dbc 179c 263b f0eb 1f3b 409d 0ebc
00000040: 542d 7f3c ed6b 513c c8fb d43c 81be c33b
00000050: e050 0138 426f 10bb 4aff 88bc 9440 463c
00000060: aed5 c33b a97e e63c bae6 91bc e12a 4d3b
00000070: 7fd0 e93c 0583 e9bb daec 2abc c5d2 3abb
00000080: 470b 8f39 6e22 613c 180c 683c 0778 4dbc
00000090: 5fb4 6dba c069 773c 9e03 63bc 9699 f3bb
000000a0: 76de 88bc 21de d93c e4af b53c 7018 8dbc
000000b0: 724a 4cbc 5652 67bc a73f a5bc a292 13bb
000000c0: 1e8f 993b f0fb fa3b 7112 dabb c461 533c
000000d0: 4cb5 0b3c faf9 393c 8772 553a 0c42 ef3c
000000e0: 6156 32bd 166a 9fbc d475 0f3b c0c0 003d
000000f0: a377 d3bc 4957 353c fada 93bc be5a cd3b
00000100: d3ea 57bb fe07 733c ee63 0f3c c8e8 8c3b
00000110: a20a 85bc 8d04 d93b 20f7 303c ae59 6a3c
00000120: 40f7 debc 043e d73b e890 57bc b46a cfbc
00000130: 775a fbbc 04b4 7dbc a84a 143c 19b6 4a3c
00000140: 8930 153c 746e 0dbc 021d 90bb 5e53 763c
00000150: 9138 453c 7cb8 7a3c 78d4 6cbc 829e b3bb
00000160: 42d8 ea3b 216d 783b 3c2b cd3b ee24 313c
00000170: f630 d13c 7fea c4bc cd86 27bb 6a13 a2bc
00000180: 4ea6 f93c 498d d3b9 ee5e 4cbc 1305 d53c
00000190: 26da 94bb 5336 263c 2d1b 08bd 12dc b33c
000001a0: 13da db39 17c5 883c 270b c7bc 491c ce3c
000001b0: 0e1b 3abd d4e5 6f3c a785 ffbc 370c 083c
000001c0: f699 003d 7a55 43bc 558b 813c dc69 bfbc
000001d0: f65d d73c 0099 f6b9 9422 a83b 4b7b 213c
000001e0: 473d 303c d91b b8bc 6c0d a13c f0c0 1e3c
000001f0: c958 103c 0a80 c8bc 0378 853c 439a 043b
00000200: 3852 733c 7fa6 e53c 1edf ddba c643 7abc
00000210: 9952 2f3d 73f7 f7bc c6e8 a93a a536 913c
00000220: 1bf9 f2bc 2a0d 0abd d8a7 4fbc 4ccf 243d
00000230: 884d 04bd 771c eaba b2bd 003d bdb1 34bb
00000240: 4475 9a3c 2808 9c3a 3619 24bd 5198 ddba
00000250: 2ee3 5c3c 6721 1d3d a992 63bc c44a a2b8
00000260: 7b94 303b 993a 08bd 830a 98bc 9977 80bc
00000270: 9173 ae3b 27d4 1b3d b342 22bb 5646 4abc
00000280: 9d0e d1b9 d4e0 8e3c 2a80 c5ba 68a0 a23c
00000290: d8ea f63c 2fe7 a8bc f8ef 9bbc 8016 48bc
000002a0: 3844 7a39 f851 9cbc 3081 fabb 0651 d8bc
000002b0: 9a26 cfbc 4366 efbb 80db 74bc ba50 d93c
000002c0: 8708 fc3c 5f97 00bd 69ae 263a d2e7 163d
000002d0: c403 fcbc e8ad 363c 2bec 7fbc e9fb 73bc
000002e0: 29f5 143c 829f b3bc 63a9 98bc cb65 1cbb
000002f0: a8cc 51bc 4363 a43c 0895 25bd 903a f2bb
00000300: d4f1 a63c a43c 0f3d c85d c73b 0d15 6fbc
00000310: fb18 8bbc f50b e83c 0116 babc 7571 383b
00000320: e866 16bd 084c 36ba cac9 1e3c 4c6a ec38
00000330: 57c8 de3b c57a 05bd 9ea4 193d b0a6 323c
00000340: 56b4 073d ce90 2539 d6a1 eabc 9e29 693c
00000350: b236 d03c 2e0b bbbc c9fb e5bc bd7d 20bb
00000360: 39f2 023c bafc 473b 96f5 993b afd3 c93c
00000370: e34b adbc 3c29 13bd 8564 f9bc 4ca7 92bc
00000380: 605f 93bc 95c6 743c 0f8e f6bb 7d7d 1cbc
00000390: 1a59 ad3c cb86 e0bc f558 edba be71 19bc
000003a0: 79be 1d3d bd8d 2dbc 206d e7bc 51e0 ef3c
000003b0: 01c7 30bc 17b5 8ebc 7fca 9fbc f82c a43b
000003c0: efcc 913c 6668 6538 9008 003d 02a8 7fbc
000003d0: f4e6 ca3b 87a5 953c d81d 07bc 3245 7c3c
000003e0: 4aec c53c 1f09 0fbc c574 123d 4664 003c
000003f0: a649 a83c a271 07bd a37d 99bc 717d 8b3b

action_model._discrete_distribution.branches.0.bias f4 [5]
0.014478453 0.0067060245 0.046042997 0.01095759 -0.13220951
00000000: 0937 6d3c 36be db3b 9597 3c3d 7787 333c
00000010: ee61 07be
