Assets/ML Models/3CubeMatcher.onnx (onnx, 73555 bytes, 6 tensors)

network_body._body_endoder.seq_layers.0.weight f4 [128, 1]
0	0xbedaa492	-0.42703682
1	0xbecd0fb6	-0.4005105
2	0x4018895b	2.3833835
3	0x3f13e43d	0.5777014
4	0x3f1deb3e	0.61687076
5	0x3f2a2a97	0.66471237
6	0xbe9e7f7d	-0.3095664
7	0xbf72e5a4	-0.94881654
8	0x401c0db8	2.4383373
9	0xbf003a54	-0.50089
10	0xbf817c07	-1.0115975
11	0x3fa8c8d0	1.3186283
12	0xbf547b0b	-0.8300025
13	0x3e2216bb	0.15828983
14	0x3e0f46b3	0.13991813
15	0xbfbab75b	-1.4587206
16	0xbf2dc2e1	-0.67875487
17	0xbfd9cb98	-1.7015257
18	0xbfa7351c	-1.3063083
19	0xbf3c09f4	-0.7345269
20	0xbea4ebfd	-0.32211295
21	0x3e521a6b	0.2051789
22	0xbfccc514	-1.5997643
23	0xc005cae2	-2.090508
24	0xbed95937	-0.42450878
25	0x3f31530b	0.6926734
26	0xbf6b8e5a	-0.92014086
27	0xbff68922	-1.92606
28	0x3f88ad3a	1.0677865
29	0xbf209e7e	-0.6274184
30	0xbf3cf81d	-0.7381609
31	0xbb922de7	-0.0044610384
32	0xbe8711e3	-0.26380834
33	0x3f9ec05c	1.2402453
34	0x3d11b9e0	0.035577655
35	0xbfb8e4c1	-1.444481
36	0x3f35a081	0.70948035
37	0xbf26dce2	-0.6518079
38	0x3e6b14b6	0.2295712
39	0x3fc93713	1.5719932
40	0x3ecbb9ff	0.3979034
41	0x3f94e342	1.1631854
42	0x3fc95844	1.5730062
43	0xbea88e44	-0.3292104
44	0xbf30b3fe	-0.69024646
45	0x3efc767b	0.49309143
46	0x3f9a6cc8	1.2064447
47	0x3f8d5efd	1.1044613
48	0xbf0cafe1	-0.5495587
49	0xbfa05078	-1.2524557
50	0xbfc8199b	-1.5632814
51	0x3e6d56f4	0.23177701
52	0x3f1cb5f4	0.6121514
53	0xbf37286a	-0.7154604
54	0x3e332c1d	0.17497297
55	0x3faaaab5	1.3333346
56	0xbee716de	-0.45134634
57	0x3f075965	0.5287078
58	0x3f39354b	0.72346944
59	0xc01c092f	-2.4380605
60	0x3fc39b88	1.5281839
61	0xbfd067c2	-1.6281664
62	0x3f4971c3	0.7868921
63	0x40034cc5	2.0515606
64	0x3ccf3c3b	0.025297275
65	0x3fb33650	1.400095
66	0xbfb8ec4d	-1.4447113
67	0xbfa0f9df	-1.2576255
68	0x3cb80fb0	0.022468418
69	0x3da271a8	0.079318345
70	0xbfb35ab6	-1.4012058
71	0xbfb51366	-1.4146545
72	0xbdf012ef	-0.11722361
73	0xbe1b2b8f	-0.15153335
74	0x3f44e221	0.76907545
75	0xbf94416d	-1.1582466
76	0x3f15e9bb	0.5855977
77	0x3db519f1	0.088428386
78	0xbff3fd96	-1.9061763
79	0xbfbad2d9	-1.4595596
80	0x3fcd4198	1.6035643
81	0xbf067899	-0.5252777
82	0x3f7f21ab	0.9966075
83	0xbf81ec5b	-1.0150255
84	0x3f46ab1d	0.7760485
85	0x3f463cd8	0.7743659
86	0x3f925608	1.1432505
87	0x3f8a3420	1.0797157
88	0x3d72386b	0.059135836
89	0x3ed9ee64	0.4256469
90	0x3fc5693e	1.5422742
91	0xbeb42223	-0.35182294
92	0xbf9aa7ed	-1.2082497
93	0xc00df580	-2.2181091
94	0xbd75f25a	-0.060045578
95	0x3f99486b	1.1975225
96	0xc009a9aa	-2.1509805
97	0x3e1d568c	0.15365046
98	0xbf9e85c8	-1.2384577
99	0xbdb4ec00	-0.08834076
100	0x3f6d6929	0.92738587
101	0x3edcbd0b	0.43112978
102	0xbe935fd5	-0.28784052
103	0x3ff63908	1.9236155
104	0x3e0268b5	0.12735255
105	0x3f81d349	1.0142604
106	0x3f306790	0.68908024
107	0xbfec0a58	-1.8440657
108	0x3ea098e2	0.3136664
109	0xbf796deb	-0.97433347
110	0x3fa70be4	1.3050504
111	0xbf6d2a30	-0.926425
112	0x3f180c54	0.5939381
113	0xbfd1943a	-1.637336
114	0xbec572e8	-0.3856423
115	0x3db89bd7	0.09014099
116	0xbf56ce4e	-0.83908546
117	0x3f5a8c47	0.85370296
118	0x3fc7f3df	1.5621299
119	0xbfafa08f	-1.3720874
120	0x3f9baa6f	1.2161387
121	0x3f9ab7dc	1.208736
122	0x3f8d5d1a	1.1044037
123	0x3f9f8b09	1.2464305
124	0x3f8aa2ee	1.0830972
125	0x3f5fe30e	0.8745583
126	0xbfa9ae5f	-1.3256339
127	0xbf96af0f	-1.1772174

network_body._body_endoder.seq_layers.0.bias f4 [128]
0	0x3e50ec54	0.20402652
1	0x3d7107e4	0.058845416
2	0xbd970661	-0.073742636
3	0xbd5a971e	-0.053366773
4	0xbdcb80d1	-0.09936679
5	0xbdecb62e	-0.115581855
6	0xbe4291cd	-0.19000931
7	0xbe2dfe0b	-0.16991441
8	0xbdfbbe3c	-0.12292144
9	0xbe326c10	-0.17424035
10	0x3d167c74	0.03673978
11	0xbda595d9	-0.08085222
12	0xbe3cb465	-0.1842819
13	0xbde25da1	-0.110530145
14	0xbdfc6f4c	-0.12325916
15	0x3ddc6efe	0.107633576
16	0xbe570901	-0.20999528
17	0x3d7596a2	0.059958108
18	0xbd8b4721	-0.06800676
19	0x3e395d60	0.18102026
20	0x3e21f3b4	0.15815622
21	0xbdbe01e8	-0.09277707
22	0x3e2d496f	0.16922544
23	0x3e183b23	0.14866309
24	0x3db23c3e	0.087028965
25	0xbda323de	-0.079658255
26	0xbe42460c	-0.18972033
27	0x3dba68dc	0.091020316
28	0xbd8fb60d	-0.07017145
29	0x3e1574be	0.14595315
30	0x3e398cc4	0.18120104
31	0x3e207986	0.15671358
32	0xbe0d9433	-0.13826065
33	0xbdc8fb10	-0.09813511
34	0xbe2ee0fa	-0.17078009
35	0x3e25870f	0.16164802
36	0xbdb5b510	-0.088724256
37	0x3e35a7be	0.1773977
38	0xbda99e2c	-0.08282122
39	0xbdd686b4	-0.10474911
40	0xbd801863	-0.062546514
41	0xbdbc86f1	-0.092054255
42	0xbdc4bd32	-0.09606399
43	0xbe2bd52d	-0.16780539
44	0xbe516843	-0.20449929
45	0x3d5bb328	0.053637654
46	0xbd1e8447	-0.03870037
47	0xbdc50e36	-0.09621851
48	0xbe250e49	-0.1611873
49	0x3df8350a	0.121194914
50	0x3df3b500	0.118997574
51	0xbe111ae3	-0.14170413
52	0xbd9fb65c	-0.07798454
53	0xbcfa84a1	-0.03058082
54	0xbe0a315f	-0.13495396
55	0xbd10eb91	-0.035380904
56	0x3e4a2ff3	0.19744854
57	0x3d2c019d	0.041993726
58	0xbd91f1a4	-0.071261674
59	0x3e296eae	0.16546127
60	0xbd4201b1	-0.047364894
61	0x3e179740	0.14803791
62	0xbde06c72	-0.10958184
63	0xbdd8dadc	-0.10588619
64	0xbdd7a5ba	-0.10529657
65	0xbd42822f	-0.047487434
66	0x3e29adf4	0.16570264
67	0x3e121fd6	0.14269957
68	0xbe292d43	-0.16521172
69	0x3d9cb9c0	0.076526165
70	0x3e26ddad	0.162955
71	0x3e11851e	0.14210936
72	0x3e2ad9eb	0.16684692
73	0x3e2b704d	0.16742058
74	0xbde9ab88	-0.1140967
75	0x3d0e9740	0.034812212
76	0xbd9188c3	-0.07106163
77	0xbe216064	-0.15759426
78	0x3db7f2dd	0.08981869
79	0x3d676e76	0.056501828
80	0xbdd75daf	-0.105159156
81	0x3e11856b	0.14211051
82	0xbdf95224	-0.1217387
83	0x3e1bcdbd	0.15215202
84	0xbe1ad56e	-0.1512048
85	0xbd9dbd82	-0.07702161
86	0xbdd510fc	-0.1040363
87	0xbd8c33e9	-0.068458386
88	0xbe3b32e3	-0.1828113
89	0xbda04614	-0.07825866
90	0xbd8e6e15	-0.0695459
91	0xbe230e3b	-0.15923397
92	0x3dfc6e96	0.1232578
93	0x3e136fa2	0.14398053
94	0x3dd46832	0.10371436
95	0xbd6a4aaf	-0.05720013
96	0x3e2c0498	0.16798627
97	0xbe12703d	-0.14300628
98	0x3e043ecd	0.12914582
99	0x3e3008e3	0.1719089
100	0xbe128888	-0.14309895
101	0xbd9ed755	-0.07755915
102	0x3e45a6f3	0.19301967
103	0xbd9d8cb9	-0.07692856
104	0xbe385499	-0.18001021
105	0x3d963e67	0.07336121
106	0xbd93bf84	-0.07214263
107	0xbdc8952b	-0.097940765
108	0x3de8729e	0.113499865
109	0xbe3da2e3	-0.18519168
110	0xbdf9933f	-0.12186288
111	0x3ce3b460	0.02779597
112	0xbe025ba0	-0.12730265
113	0x3dee10d4	0.116243035
114	0x3e32eb04	0.17472464
115	0x3e13698b	0.1439573
116	0x3d14242d	0.036167312
117	0x3ba79577	0.005114253
118	0xbd9d3b9f	-0.076773874
119	0x3d488376	0.048953496
120	0xbd7eaea7	-0.06217828
121	0xbd35e07f	-0.04440355
122	0xbdcfaa05	-0.101398505
123	0xbda2fe16	-0.07958619
124	0x3c340de8	0.010989644
125	0xbdbbbea6	-0.09167223
126	0x3e172b25	0.14762552
127	0x3e1adbfd	0.15122981

network_body._body_endoder.seq_layers.2.weight f4 [128, 128]
0	0xbcebd59d	-0.028788382
1	0xbdb5ab64	-0.08870581
2	0xbd358d85	-0.044324417
3	0xbe2c72ba	-0.1684064
4	0x3e95cf1f	0.29259583
5	0x3d0f020d	0.034914065
6	0x3e1cbfdc	0.15307564
7	0x3cfb9c0c	0.030714057
8	0x3da5ce9d	0.08096049
9	0x3de8bd29	0.113642044
10	0x3d5a0904	0.053231254
11	0xbd80a935	-0.06282274
12	0x3db83d2b	0.08996042
13	0xbcb12838	-0.021625623
14	0x3e0ee694	0.13955146
15	0xbc521bc0	-0.012823999
16	0x3e6f9a3f	0.23398684
17	0x3dcdca70	0.100483775
18	0xbd143142	-0.03617979
19	0xbdbb4977	-0.09144872
20	0xbcf6f058	-0.030143902
21	0x3d9088b8	0.07057327
22	0x3d9aeae9	0.07564337
23	0x3d42be3f	0.047544714
24	0x3d6fc5ed	0.058538366
25	0x3d55aae6	0.052164935
26	0x3d9995c6	0.0749927
27	0x3ca04207	0.019562734
28	0x3dd8fcfe	0.105951294
29	0x3d7ddd4e	0.06197863
30	0x3d5fc625	0.054632325
31	0xbe8b4f9d	-0.27209178
32	0xbe449abb	-0.1919965
33	0x3daf2828	0.08552581
34	0x3dd1fbf7	0.102531366
35	0xbd355b2b	-0.044276398
36	0x3bd4785e	0.0064840754
37	0xbd863643	-0.06553318
38	0x3d1681a1	0.036744718
39	0x3e0b2dd9	0.13591708
40	0xbca32db1	-0.019919248
41	0x3d59b04a	0.053146638
42	0x3dfacd4b	0.12246188
43	0x3e877bb4	0.26461565
44	0xbd814038	-0.06311077
45	0x3cbf1ad5	0.023328224
46	0x3cf7632f	0.030198662
47	0x3cd18911	0.025578054
48	0xbe217de5	-0.15770681
49	0x3d1d7f75	0.03845163
50	0x3d09e399	0.03366432
51	0x3d12e83c	0.035866007
52	0x3e471976	0.19443306
53	0x3cd9cf6c	0.026588164
54	0xbd9c8ce9	-0.07644064
55	0xbddfed13	-0.1093389
56	0xbd94d3b7	-0.07266944
57	0xbcbf02d1	-0.023316773
58	0x3b870b73	0.004121238
59	0x3e18911f	0.1489911
60	0x3dd67199	0.10470886
61	0xbc02392c	-0.007948201
62	0x3e066063	0.13122706
63	0x3d880ed7	0.066434555
64	0x3e03d6d3	0.12874918
65	0xbd9a8463	-0.07544782
66	0x3e268fdc	0.16265815
67	0x3dceb88f	0.100937955
68	0x3e26ca82	0.16288188
69	0x3dd29e95	0.10284153
70	0x3cc1e477	0.02366851
71	0xbd4f5be3	-0.05062474
72	0x3be6de22	0.0070455233
73	0xbdd8d6fb	-0.10587879
74	0x3d902153	0.07037606
75	0xbc0cd52c	-0.008595746
76	0xbe108bfe	-0.14115903
77	0x3d964be5	0.073386945
78	0xbe1481e3	-0.14502673
79	0x3d952c18	0.07283801
80	0x3da878de	0.082261786
81	0xbe5ea87e	-0.21743962
82	0x3da5bc0e	0.08092509
83	0xbe17b1b5	-0.14813884
84	0x3afb255b	0.0019160913
85	0x3d7bbc49	0.06145886
86	0xbc37bb17	-0.011214039
87	0x3b5cc5dc	0.003368727
88	0xbd38b4f7	-0.045094457
89	0x3e47f077	0.19525324
90	0xbd3dd4fa	-0.04634569
91	0xbdd0b673	-0.101910494
92	0x3d7094bf	0.058735605
93	0x3e9207f1	0.28521684
94	0x3d984256	0.074345276
95	0xbc9d98e3	-0.019237941
96	0x3e43717e	0.19086263
97	0xbd9f1d2e	-0.077692375
98	0xbccf720d	-0.025322938
99	0xbd4536da	-0.048148014
100	0xbd26dd2e	-0.040738277
101	0xbd05d072	-0.032669492
102	0xbdb2c119	-0.08728237
103	0x3dcc2213	0.09967437
104	0x3e213f80	0.1574688
105	0xbd20f794	-0.03929861
106	0x3e342359	0.17591609
107	0x3e00eb11	0.1258967
108	0x3dd2ce62	0.10293271
109	0x3dceb96e	0.10093962
110	0x3d268615	0.040655214
111	0x3e18526a	0.14875188
112	0x3e34abef	0.17643712
113	0x3ddd73af	0.108130805
114	0xbd206f88	-0.039168864
115	0x3cc09a4c	0.023511074
116	0x3e1e9d77	0.15489756
117	0x3c4f9b15	0.012671252
118	0x3daed1d6	0.08536117
119	0xbd0f4a82	-0.034983166
120	0xbddf05d5	-0.10889784
121	0x3df8c762	0.12147404
122	0xbd90c2bd	-0.070683934
123	0x3bcb4a01	0.0062038903
124	0xbd4c95e7	-0.049947646
125	0xbe1126cd	-0.14174958
126	0xbb178b5e	-0.002312384
127	0xb916879c	-0.00014355633
128	0xbda97254	-0.082737595
129	0xbdc91e97	-0.09820288
130	0xbca94cae	-0.020666447
131	0x3d8acbb0	0.067771316
132	0x3d00cb17	0.03144368
133	0xbd5975fe	-0.05309104
134	0xbd852d00	-0.06502724
135	0x3e0696a6	0.13143405
136	0x3cbce691	0.023059161
137	0xbe470f95	-0.19439538
138	0xbda3b926	-0.07994299
139	0xbd9be461	-0.07611919
140	0xbda0222d	-0.078190185
141	0x3dcf1bde	0.10112737
142	0x3dea49a4	0.11439827
143	0xbd288211	-0.041139666
144	0x3e23e757	0.16006218
145	0x3b1eedbe	0.0024250592
146	0xbdaf30d1	-0.08554233
147	0xbd3bdc69	-0.045864496
148	0x3d4fafd9	0.05070481
149	0x3d0a5f6b	0.033782404
150	0xbde9da0d	-0.11418543
151	0xbe785a81	-0.24253275
152	0xbe952a5b	-0.29133877
153	0xbd2b87c8	-0.041877538
154	0x3d697fc0	0.057006598
155	0xbe83505e	-0.25647253
156	0x3dd46406	0.103706405
157	0x3d697e5a	0.057005264
158	0x3d8a6ece	0.067594156
159	0xbdb04e22	-0.08608653
160	0x3db86762	0.09004094
161	0x3d8970b2	0.06710948
162	0xbdc5f70e	-0.096662626
163	0xbe60930b	-0.21931092
164	0xbdbd9b66	-0.092581555
165	0x3d687d59	0.056760166
166	0xbd3bf3b1	-0.0458867
167	0x3c9d5cdb	0.019209316
168	0xbd079f3f	-0.033110853
169	0xbc5ce5b2	-0.013482498
170	0x3e1b6732	0.15176085
171	0x3d687945	0.056756277
172	0xbde5cb25	-0.11220387
173	0x3ce50f2d	0.027961338
174	0xbd2ec830	-0.042671382
175	0x3e48b1e9	0.19599117
176	0x3d33119b	0.04371796
177	0x3c571ece	0.013129903
178	0xbcf6d6b9	-0.030131685
179	0xbc8167a2	-0.015796486
180	0xbdb72ddc	-0.08944294
181	0xbd3cca2a	-0.046091236
182	0xbdfbf732	-0.12303008
183	0x3d132d91	0.035932127
184	0x3e037ae5	0.1283985
185	0xbd830e30	-0.063991904
186	0x3e08ecd7	0.13371597
187	0xbbe7cd70	-0.0070740506
188	0x3db87558	0.090067565
189	0xbe4cc0c1	-0.19995405
190	0xbb621ec5	-0.0034503203
191	0x3d2b1d59	0.041776035
192	0xbbc67957	-0.0060569453
193	0xbe134b08	-0.14384091
194	0xbdef5f42	-0.11688091
195	0x3b4f398c	0.0031619994
196	0x3d2d1137	0.042252745
197	0x3d9583dc	0.07300541
198	0xbe3055bd	-0.17220207
199	0xbcd9e424	-0.026598044
200	0xbdb01a86	-0.08598809
201	0xbdbe5c8c	-0.09294996
202	0x3d8336d6	0.064069435
203	0x3dfb02c1	0.12256385
204	0x3cb6eae3	0.0223288
205	0x3e18b532	0.1491287
206	0xbe5175de	-0.20455119
207	0xbe4d4ce1	-0.20048858
208	0x3d693df3	0.056943845
209	0x3bd4ba4f	0.0064919363
210	0x3db2d8e0	0.08732772
211	0x3cd3346f	0.025781838
212	0x3d93a3f2	0.072090045
213	0x3cc3fb11	0.023923429
214	0x3de211ae	0.110385284
215	0x3d50377b	0.05083416
216	0x3df09d38	0.11748737
217	0x3e1247f3	0.14285259
218	0xbc737e9e	-0.014861731
219	0xbdd8b3a5	-0.105811395
220	0x3d1fc1c7	0.03900316
221	0xbe11b794	-0.14230186
222	0x3d9ee006	0.07757573
223	0xba87af01	-0.0010351838
224	0xbe2c32ba	-0.16816226
225	0x3e10410c	0.14087313
226	0x3c86f1bb	0.016472688
227	0x3c57a62b	0.013162176
228	0x3dc27f14	0.094968945
229	0xbc03d67b	-0.008046742
230	0xbdae3589	-0.08506305
231	0x3decaa62	0.115559354
232	0x3d19978f	0.037498053
233	0x3cdadbc0	0.026716113
234	0x3c9c5a19	0.01908593
235	0xbe25f526	-0.16206798
236	0xbd9f8afd	-0.07790182
237	0xbd342d35	-0.043988425
238	0xbce8ad0e	-0.028402831
239	0xbe150fe4	-0.14556843
240	0x3e3477d5	0.17623837
241	0xbdca458a	-0.09876545
242	0xbe3f6bca	-0.18693462
243	0xbd4c61f3	-0.0498981
244	0xbdccf11a	-0.10006924
245	0xbcc03cb9	-0.023466455
246	0x3de37e69	0.11108095
247	0xbbc952ff	-0.006143927
248	0x3bba3a6b	0.0056832335
249	0x3c0d814e	0.008636786
250	0x3dd5d7e2	0.10441567
251	0xbdce763f	-0.100811474
252	0xbdd4f0e7	-0.10397511
253	0xbdcf896d	-0.10133634
254	0x3bfa4620	0.007637754
255	0xbe328e8d	-0.17437191

network_body._body_endoder.seq_layers.2.bias f4 [128]
0	0xbda71dad	-0.08159957
1	0xbd614330	-0.054995716
2	0x3cd144dc	0.02554553
3	0xbd6fe98d	-0.05857234
4	0x3d94cfc4	0.07266191
5	0xbd841953	-0.06450143
6	0xbd4a10b5	-0.04933234
7	0x3d17e42a	0.03708283
8	0x3e19d433	0.15022354
9	0xbd379c1d	-0.044826616
10	0x3e278180	0.16357994
11	0x3c649ec6	0.01395387
12	0xbd594ad0	-0.053049862
13	0x3de12c3f	0.109947674
14	0x3dd59b5f	0.10430025
15	0x3e076521	0.13222171
16	0x3e360f1a	0.17779198
17	0x3e0ffab8	0.14060485
18	0x3e2f63b8	0.17127883
19	0xbd5dd780	-0.054160595
20	0x3db2a114	0.087221295
21	0x3dc96f5b	0.098356925
22	0xbd268f8d	-0.040664244
23	0x3e32e0a6	0.17468509
24	0x3e244171	0.16040589
25	0x3e27ab50	0.16373944
26	0x3c83727c	0.016045801
27	0x3e1c8096	0.15283427
28	0xbd382518	-0.04495725
29	0x3e1e1595	0.1543792
30	0x3da34da6	0.07973795
31	0xbd34f0a9	-0.044174824
32	0x3d2a5685	0.041586418
33	0x3e363bc2	0.17796233
34	0xbd2f6382	-0.042819507
35	0x3e14a7b2	0.14517096
36	0xbd0c3cba	-0.0342376
37	0xbd6c7c6b	-0.05773584
38	0x3dfa61f5	0.12225715
39	0x3e28f30e	0.16498968
40	0x3e2c1cb5	0.16807826
41	0x3d04ddfc	0.032438263
42	0xbd7fa6df	-0.062415
43	0x3dd96f53	0.106169365
44	0x3db98877	0.09059232
45	0x3c4e2f93	0.012584585
46	0x3d929530	0.071573615
47	0xbd9a42a4	-0.07532242
48	0xbd96e971	-0.07368744
49	0x3c2d211d	0.010566977
50	0x3cc0d320	0.023538172
51	0xbd5b58f2	-0.05355162
52	0x3e277796	0.16354212
53	0x3d4c6cec	0.049908563
54	0xbd8095d7	-0.0627858
55	0xbd36fca7	-0.04467454
56	0x3e2c044b	0.16798513
57	0xbd6fd388	-0.05855134
58	0x3e0ea440	0.13929844
59	0xbd8bffed	-0.06835923
60	0x3e07b035	0.13250811
61	0xbd335ef9	-0.043791745
62	0x3d98af1f	0.07455277
63	0x3dd917e1	0.10600258
64	0xbd270573	-0.04077668
65	0xbcc1b3d4	-0.023645319
66	0x3ceacfbf	0.028663514
67	0x3e044c22	0.12919667
68	0x3ca3b4b2	0.019983623
69	0xbdae5466	-0.085121915
70	0xbc906f00	-0.017631054
71	0xbd3902e4	-0.045168772
72	0xbd0cf37b	-0.03441189
73	0xbd425c40	-0.047451258
74	0x3e313afb	0.17307656
75	0x3ba8e60a	0.005154376
76	0xbcbdb11d	-0.023155743
77	0x3dbbaa58	0.0916335
78	0x3e3e3395	0.18574364
79	0xbcb1f3a0	-0.021722615
80	0xbd59008f	-0.05297905
81	0x3e2e0414	0.16993743
82	0xbd8d2d2b	-0.06893381
83	0xbd4811a5	-0.048844952
84	0x3dc3c4d5	0.09559027
85	0xbd443456	-0.047901474
86	0xbd55c68b	-0.0521913
87	0xbd0f66c6	-0.03501012
88	0x3e31c21e	0.17359206
89	0xbd8936f6	-0.06699936
90	0xbd67db18	-0.05660543
91	0x3cd78388	0.026307836
92	0xbd7465ff	-0.059667584
93	0xbd37f42b	-0.04491059
94	0x3d356cee	0.044293337
95	0xbd604953	-0.054757427
96	0xbd292d86	-0.04130318
97	0xbd838b8f	-0.06423103
98	0x3e1e4707	0.15456782
99	0xbc31ebf8	-0.010859482
100	0x3d31aff2	0.043380685
101	0xbd47b6b7	-0.048758235
102	0xbd8d2d1e	-0.06893371
103	0xbd88eb84	-0.06685546
104	0x3e34ab2c	0.17643422
105	0x3e259168	0.1616875
106	0x3e2ad409	0.16682447
107	0x3b8d74b9	0.004316893
108	0xbb987907	-0.0046530995
109	0x3dfc790d	0.12327776
110	0x3debb9ef	0.115100734
111	0x3de70255	0.11279742
112	0x3ddda793	0.10822978
113	0xbcff3cc3	-0.031156903
114	0x3d121bc9	0.03567103
115	0x3d05d1a1	0.03267062
116	0xbda25572	-0.07926454
117	0x3e26ddf8	0.16295612
118	0x3dc59969	0.09648401
119	0xbd82a6fe	-0.063795075
120	0xbd8941c0	-0.06701994
121	0xbd7e7ad2	-0.06212885
122	0xbc8d15da	-0.017222334
123	0xbd237401	-0.03990555
124	0x3e28a3b1	0.16468693
125	0x3d198f93	0.03749044
126	0x3d6a5a6f	0.05721515
127	0x3e16ce5a	0.14727154

action_model._discrete_distribution.branches.0.weight f4 [3, 128]
0	0xbcc00dbe	-0.023444053
1	0xbcc37fec	-0.023864709
2	0xbcc08180	-0.02349925
3	0xbc21e2c6	-0.009880727
4	0xbcb8b5bb	-0.022547593
5	0xbc54bfc1	-0.012985171
6	0xbd3458cc	-0.044029996
7	0xbd80ee52	-0.06295456
8	0x3db4734b	0.08811053
9	0xbc49b690	-0.012311593
10	0x3d9ed9e6	0.077564046
11	0xbd19b38a	-0.037524737
12	0xbc6c4f40	-0.014423192
13	0xba923976	-0.0011156041
14	0xbc8036fd	-0.01565122
15	0x3d19091e	0.03736221
16	0x3dcb2258	0.0991866
17	0x3d94b0a5	0.07260255
18	0x3df5a9a0	0.11995244
19	0xbce6d47b	-0.02817749
20	0xbcc79cff	-0.024366854
21	0x3db442d8	0.08801812
22	0xbbced0c4	-0.006311508
23	0x3de16c84	0.11007026
24	0x3dbd574f	0.092451684
25	0x3e042a84	0.12906843
26	0x3c578e2b	0.013156454
27	0x3dc2f54f	0.09519445
28	0x3a682e44	0.0008856992
29	0x3de194a7	0.11014681
30	0xbd11f798	-0.035636514
31	0xbbadccac	-0.00530394
32	0xbd03e370	-0.032199323
33	0x3dcb4b13	0.09926429
34	0xbcd86273	-0.026414132
35	0x3de6abc0	0.112632275
36	0x3c3af961	0.011411996
37	0xbd0724de	-0.032994144
38	0x3d0ff054	0.035141304
39	0x3db83de8	0.08996183
40	0x3dbb6249	0.09149606
41	0x3d380ba0	0.04493296
42	0xbc7ae9d7	-0.015314541
43	0xbc359a99	-0.011084222
44	0x3dcc0fba	0.09963937
45	0xbd68685a	-0.056740142
46	0xbcfb1f76	-0.03065465
47	0xbc777953	-0.01510461
48	0xbc8e67e2	-0.01738352
49	0x3cb04244	0.021515973
50	0xbd5f4841	-0.054512266
51	0xbcb7c897	-0.022434516
52	0x3dea69ab	0.11445936
53	0x3d360f9d	0.044448484
54	0xbcbe210f	-0.023209123
55	0x3b9c3dce	0.00476811
56	0x3de5048d	0.111825086
57	0xbc8f8ee0	-0.017524183
58	0x3dbd9da4	0.09258583
59	0xbc812a95	-0.015767375
60	0x3dd0bf0b	0.101926886
61	0xbb9f47df	-0.0048608626
62	0xbcfa65c1	-0.030566098
63	0x3c837308	0.016046062
64	0xbcb33124	-0.021874018
65	0xbd86dc20	-0.06584954
66	0x3d659f16	0.05605992
67	0x3db2d006	0.087310836
68	0xbd7b0b17	-0.061289873
69	0xbd151505	-0.036397
70	0xbd174b9d	-0.036937345
71	0xbb929b35	-0.0044740685
72	0xbc1ac210	-0.009445682
73	0xbd5ff523	-0.05467714
74	0x3dbed2e3	0.09317567
75	0x3c77f120	0.015133172
76	0xbb20641f	-0.002447374
77	0xbc6495e4	-0.013951752
78	0x3de52e65	0.1119049
79	0x3c295c2f	0.01033692
80	0xbca4ea28	-0.020131186
81	0x3dd9b28c	0.10629758
82	0xbc856c3a	-0.016286958
83	0xbcfc640b	-0.030809423
84	0xbc962d4b	-0.018332144
85	0xbd5c7256	-0.053819977
86	0xbc8f3c35	-0.017484764
87	0xbd84c3ce	-0.06482659
88	0x3dd5d674	0.10441294
89	0xbd00d656	-0.031454407
90	0xbd0322f2	-0.03201575
91	0x3c805422	0.015665118
92	0xbcba9aae	-0.022778835
93	0xbcb00f1a	-0.021491576
94	0xbd85d38b	-0.06534489
95	0xbc4a7bed	-0.012358648
96	0xbca40788	-0.020023122
97	0xbcf074b9	-0.029352533
98	0x3dd46163	0.103701375
99	0x3ca39ed7	0.019973202
100	0x3d42d879	0.047569726
101	0xbcb77667	-0.022395326
102	0xbc909ddc	-0.017653398
103	0xbc9ba6af	-0.01900038
104	0x3dbf4dc4	0.093410045
105	0x3dd70d05	0.1050053
106	0x3dbe97ac	0.09306273
107	0xbd230ea1	-0.039808873
108	0xbca06279	-0.019578205
109	0x3da769ff	0.08174514
110	0x3d30a138	0.0431225
111	0x3c0e5901	0.008688212
112	0xbb9b78ac	-0.00474461
113	0x3b285d87	0.0025690512
114	0xbd86d868	-0.06584245
115	0x3c9783ad	0.018495405
116	0xbccf3e97	-0.0252984
117	0x3ddd0f4b	0.107939325
118	0x3d8f902b	0.0700992
119	0xbc712b25	-0.014719759
120	0xbca71cc4	-0.020399459
121	0xbc9f0057	-0.019409342
122	0x3cb02a66	0.021504592
123	0xbb1e1637	-0.0024122128
124	0x3dc52377	0.09625905
125	0xbd2a4a33	-0.04157467
126	0xbd36eb96	-0.044658266
127	0x3dd996e4	0.10624483
128	0xbcb83fd3	-0.022491371
129	0x3c8d78d6	0.017269533
130	0x3d6d094d	0.057870198
131	0x3c59c4c4	0.0132915415
132	0x3d552622	0.05203832
133	0xbb8c7e02	-0.0042874822
134	0x3cbd3ed0	0.02310124
135	0x3dd9163b	0.10599943
136	0xbd9a6a43	-0.07539799
137	0xbd28711a	-0.041123487
138	0xbd34b7df	-0.044120666
139	0x3d9fcb80	0.078024864
140	0xbca3668b	-0.019946357
141	0x3d8c04c8	0.068368495
142	0x3d7d88df	0.06189811
143	0x3d1812db	0.037127357
144	0xbdbfef73	-0.09371843
145	0xbca3cfd7	-0.019996567
146	0xbd9b2e4a	-0.07577188
147	0xbd1f88df	-0.03894889
148	0x3d916360	0.070990324
149	0xbd99de5a	-0.07513113
150	0xbd2526af	-0.040320095
151	0xbd9a0a0c	-0.075214475
152	0xbd47488d	-0.048653174
153	0xbd90f651	-0.07078231
154	0xbd92e542	-0.07172634
155	0xbd857688	-0.06516749
156	0xbd338bfb	-0.043834668
157	0xbdd2c2ee	-0.10291086
158	0x3db47788	0.08811861
159	0xbd090d37	-0.03345987
160	0x3d985d03	0.074396156
161	0xbd83f0ca	-0.06442411
162	0x3d04fa3d	0.03246521
163	0xbdb93e23	-0.09045055
164	0xbd7a3d98	-0.061093897
165	0x3be25721	0.006907359
166	0x3d81bb34	0.06334534
167	0x3cc80ed2	0.02442113
168	0xbd642a82	-0.0557046
169	0xbc929a64	-0.017895885
170	0xbcac0ab9	-0.021001207
171	0x3d9100df	0.07080244
172	0xbdc4936e	-0.095984325
173	0x3d836016	0.06414811
174	0x3da733fe	0.081642136
175	0xbc7c9090	-0.015415326
176	0xbc92617f	-0.017868755
177	0xbdafbfe3	-0.08581521
178	0x3dc87860	0.09788585
179	0xbcacacc7	-0.02107848
180	0xbd8606ea	-0.065442875
181	0xbd7184df	-0.058964606
182	0xbca4feca	-0.020141024
183	0xbca82e66	-0.020529937
184	0xbdb8fc2d	-0.09032474
185	0xbd50cb54	-0.05097516
186	0xbdb452bb	-0.08804842
187	0xbc9bb9f3	-0.019009566
188	0xbdadc7d8	-0.08485383
189	0xbd588b4b	-0.052867215
190	0x3d974077	0.073853426
191	0x3d91bca5	0.07116059
192	0x3cd3067a	0.025759924
193	0x3d903075	0.070404924
194	0xbdf0c77b	-0.11756798
195	0xbdb3befc	-0.08776662
196	0x3daa3b4c	0.08312091
197	0xbb583320	-0.0032989457
198	0x3d5729e9	0.052530203
199	0xbca82cd0	-0.02052918
200	0xbd1f25ff	-0.038854595
201	0x3d5ddacd	0.054163743
202	0xbd80258a	-0.0625716
203	0xbd9ec365	-0.07752112
204	0xbd027cc2	-0.03185726
205	0x3d6d7c7d	0.05798005
206	0xbd98b0fb	-0.07455631
207	0xbc4b218b	-0.012398134
208	0x3c4f175b	0.012639846
209	0xbdab769a	-0.08372231
210	0xbb598830	-0.0033192746
211	0x3c1a0df8	0.0094027445
212	0x3d8ffad2	0.07030262
213	0x3d053db7	0.03252956
214	0xba7940f6	-0.0009508276
215	0x3d33ae9c	0.043867692
216	0xbd9a7dbe	-0.07543515
217	0xbc1289ed	-0.008944017
218	0x3d00f627	0.03148475
219	0xbd70d52c	-0.058797047
220	0x3b08f626	0.002089867
221	0xbd84012a	-0.064455345
222	0x3dd036c5	0.101666965
223	0xbce32a3e	-0.027730104
224	0xbd62ef89	-0.05540422
225	0x3b9a4dac	0.0047089662
226	0xbd976d79	-0.07393927
227	0xbd7009da	-0.058603145
228	0xbd86e128	-0.06585914
229	0xbd518050	-0.05114776
230	0xbcb199b2	-0.021679733
231	0xbb465eb9	-0.0030268861
232	0xbd932ce6	-0.07186298
233	0xbdb8d0e7	-0.0902422
234	0xbdc40d79	-0.09572882
235	0x3d7669a1	0.06015933
236	0x3c8e7baa	0.017392952
237	0xbdb58b2f	-0.08864438
238	0x3d8e7cda	0.06957407
239	0x3d772147	0.06033447
240	0x3d763c40	0.060116053
241	0xbc946264	-0.018113323
242	0x3dcc899f	0.09987187
243	0xbd807f6d	-0.062743045
244	0xbca0aae8	-0.019612744
245	0xbdc309b8	-0.09523338
246	0xbd96bb0d	-0.07359896
247	0xbc32e9a2	-0.01091996
248	0xbc1a52ce	-0.009419156
249	0xbb0753f1	-0.0020649398
250	0xbd7c219c	-0.06155549
251	0xbcc427bc	-0.023944728
252	0xbd71525c	-0.058916435
253	0x3d99c2c4	0.07507852
254	0x3de0fb21	0.10985399
255	0xbdb1086c	-0.086441845

action_model._discrete_distribution.branches.0.bias f4 [3]
0	0x3da54bfb	0.08071133
1	0xbb77470a	-0.0037731552
2	0xbd88184f	-0.066452615
