Assets/ML Models/9CubeMatcherGym.onnx (onnx, 76651 bytes, 6 tensors)

network_body._body_endoder.seq_layers.0.weight f4 [128, 1]
0.21342829 0.83316225 -0.7527425 0.30703148 0.2982057 0.49067473 -0.512268 0.2876917
-0.71841604 1.175618 1.1596407 -0.05628445 -0.7833307 -0.81184816 -0.8086273 -1.426575
-1.283746 0.08965512 -0.30217844 -0.11908234 -0.40683374 -0.7285834 0.16508874 0.59633356
0.57599497 -0.7089009 -0.37865955 0.4568285 -0.34272042 -1.3397683 0.28155038 1.6291603
-0.054727726 -0.21195999 -2.2780907 1.6143994 -0.13031723 -0.029117309 -0.18439966 1.246125
-1.1439121 -2.1884973 -1.6729921 -0.3615076 0.4326202 -0.08298276 0.24436213 -0.1478921
0.35272574 -0.0936197 -0.545226 0.54406357 0.80294925 0.3261049 1.9652996 0.879373
1.2078272 0.62895894 -0.11240264 2.3800662 -0.0465124 1.3029892 -0.45186523 1.0670975
-0.8919866 -0.5243888 0.7974831 0.5477821 0.7976977 1.0351417 0.30425227 0.105761044
0.640488 0.34121463 1.0836974 0.6528687 -0.20723426 0.0119064795 -1.887517 -1.382489
-2.5522168 -2.0872517 -0.36548313 1.5319865 0.8092018 -2.0147436 -0.00215649 -0.2664838
1.5088494 -0.00353808 -2.714844 -0.2522017 -0.29268196 -0.5036732 -0.18203302 -1.2780304
0.24188352 1.1454421 -2.3080854 -0.73770773 1.2247128 -0.24075784 -0.09387374 0.31579512
1.9301943 -0.5491486 0.10108553 1.31962 -0.7407298 1.7518549 -1.4365494 0.77945566
-1.3220892 0.83502954 -0.63559294 0.90557134 -0.18238406 -0.6884073 1.9584519 0.6552825
-1.0915982 0.89790183 -1.5577712 0.3884104 0.42498296 1.8626335 0.51287204 1.5860168
00000000: f28c 5a3e 1f4a 553f bcb3 40bf 3b33 9d3e
00000010: 6bae 983e b839 fb3e ff23 03bf 544c 933e
00000020: 1dea 37bf a77a 963f 1b6f 943f 868a 66bd
00000030: 5c88 48bf 48d5 4fbf 3302 4fbf 029a b6bf
00000040: ca51 a4bf 1b9d b73d 22b7 9abe 71e1 f3bd
00000050: 834c d0be 7184 3abf 060d 293e 51a9 183f
00000060: 6874 133f 887a 35bf aadf c1be 6de5 e93e
00000070: 0d79 afbe 877d abbf 5f27 903e 5388 d03f
00000080: 2e2a 60bd 0a0c 59be 3dcc 11c0 a4a4 ce3f
00000090: e171 05be 6c87 eebc 44d3 3cbe 0681 9f3f
000000a0: b66b 92bf 5710 0cc0 9b24 d6bf 8617 b9be
000000b0: 6580 dd3e def2 a9bd 113a 7a3e 0771 17be
000000c0: 7898 b43e afbb bfbd ee93 0bbf c047 0b3f
000000d0: 158e 4d3f 39f7 a63e f08e fb3f 971e 613f
000000e0: 159a 9a3f 7403 213f 5b33 e6bd 0153 1840
000000f0: c983 3ebd 5ac8 a63f e15a e7be a796 883f
00000100: 3c59 64bf 583e 06bf da27 4c3f 733b 0c3f
00000110: eb35 4c3f 867f 843f f4c6 9b3e 3f99 d83d
00000120: 06f7 233f afb3 ae3e 99b6 8a3f 6722 273f
00000130: 3835 54be 6513 433c 289a f1bf 66f5 b0bf
00000140: 8557 23c0 8895 05c0 9b20 bbbe 2218 c43f
00000150: d927 4f3f 8ff1 00c0 e653 0dbb 9170 88be
00000160: fa21 c13f 22df 67bb 01c0 2dc0 9520 81be
00000170: 69da 95be baf0 00bf dd66 3abe 8096 a3bf
00000180: 50b0 773e d99d 923f acb7 13c0 6ada 3cbf
00000190: 64c3 9c3f 3989 76be e040 c0bd e6af a13e
000001a0: 9b10 f73f 0195 0cbf ee05 cf3d 4fe9 a83f
000001b0: 78a0 3dbf c83c e03f dae0 b7bf 688a 473f
000001c0: 383a a9bf 7fc4 553f 38b6 22bf 86d3 673f
000001d0: e3c2 3abe 763b 30bf 8dae fa3f 98c0 273f
000001e0: 7db9 8bbf e5dc 653f 0c65 c7bf badd c63e
000001f0: 5e97 d93e c66a ee3f 954b 033f 9902 cb3f

network_body._body_endoder.seq_layers.0.bias f4 [128]
-0.0018691521 -0.01262631 -0.023926703 -0.0061179004 -0.007798053 0.0071251136 -0.016239075 -0.002544783
0.019194053 0.00019729132 -0.01362397 -0.012249808 0.0030823462 -0.00416527 -0.01823605 -0.019232702
0.00018397947 -7.9233905e-05 -0.0076575223 -0.029158747 -0.016141443 0.019973628 -0.0034925828 -0.013522914
-0.0033621534 -0.008522097 0.008853693 -0.024722146 -0.006210984 0.01455057 0.0108767515 -0.015151726
-0.0002795345 -0.004473317 -0.013914666 0.0050754324 -0.0062957834 0.00047806936 -0.0037776043 -0.01902093
0.0101620965 0.012725977 -0.0006414582 -0.012819733 -0.0006565955 -0.004892554 -0.0034609276 -0.010373998
-0.0081735 -0.01776553 -0.032398824 -0.009210503 -0.0072242906 -0.023908352 -0.020165902 -0.022953136
0.0003735882 -0.017338203 -0.0056009274 -0.0105819 0.02198749 -0.026716426 -0.012442331 0.0017160511
-0.0023377426 0.011402537 0.0069933464 -0.015317332 -0.015915487 -0.00073895964 0.0027630662 -0.009359555
0.002896404 -0.00075979426 -0.020967051 -0.009477338 0.0021911822 -0.0015099185 0.01565289 -0.003335401
0.017153587 0.0022612638 0.0071154167 -0.00806413 -0.0101916455 0.0004726992 0.01983695 -0.0055439635
-0.011456667 0.0060599507 -0.007817683 0.03297477 -0.017576568 -0.0075606047 0.015673758 -0.00437755
-0.000772295 -0.017891984 -0.0021181337 0.013467086 -0.00048477185 0.008385223 -0.016948314 -0.011961903
-0.019173194 -0.006560287 0.0065780478 0.007618939 0.014313512 -0.018034358 0.03179388 -0.009060754
0.010406251 -0.024690868 0.0019030952 -0.018661894 0.0013440467 0.00564397 0.00028157857 -0.0078007965
0.012302126 -0.007646894 -0.022018304 -0.013404785 -0.016418302 -0.019389337 -0.0026856994 -0.005747286
00000000: 56fe f4ba 95de 4ebc ef01 c4bc ab78 c8bb
00000010: cf86 ffbb c979 e93b cf07 85bc 60c6 26bb
00000020: d93c 9d3c fcdf 4e39 1237 5fbc 6bb3 48bc
00000030: 3001 4a3b d17c 88bb c563 95bc e68d 9dbc
00000040: 9dea 4039 612a a6b8 f4eb fabb 53de eebc
00000050: 0f3b 84bc bc9f a33c d1e3 64bb 368f 5dbc
00000060: 9357 5cbb 44a0 0bbc 140f 113c 1986 cabc
00000070: 8385 cbbb 8465 6e3c 6734 323c f23e 78bc
00000080: 7c8e 92b9 e794 92bb 57fa 63bc d04f a63b
00000090: dc4c cebb 62a5 fa39 af91 77bb c8d1 9bbc
000000a0: ec7e 263c 9e80 503c 8827 28ba db09 52bc
000000b0: 611f 2cba b851 a0bb bbd0 62bb b4f7 29bc
000000c0: 25ea 05bc 0489 91bc a1b4 04bd a6e7 16bc
000000d0: beb9 ecbb 73db c3bc f632 a5bc 3708 bcbc
000000e0: 29de c339 d908 8ebc fc87 b7bb b55f 2dbc
000000f0: 1c1f b43c 68dc dabc ebda 4bbc 1fed e03a
00000100: d034 19bb b5d1 3a3c 7128 e53b 8cf5 7abc
00000110: 3261 82bc beb6 41ba 8f14 353b d258 19bc
00000120: 98d1 3d3b ee2c 47ba 18c3 abbc d646 1bbc
00000130: f099 0f3b 75e8 c5ba 7d3a 803c be96 5abb
00000140: ae85 8c3c b631 143b 7128 e93b 6a1f 04bc
00000150: dcfa 26bc 9dd4 f739 1981 a23c 23aa b5bb
00000160: bfb4 3bbc 8d92 c63b bd15 00bc 8d10 073d
00000170: bcfc 8fbc f3be f7bb 4166 803c 8d71 8fbb
00000180: d773 4aba 3692 92bc 63d0 0abb 0da5 5c3c
00000190: fa28 feb9 2d62 093c 31d7 8abc dcfb 43bc
000001a0: 1a11 9dbc adf7 d6bb aa8c d73b 4ba8 f93b
000001b0: 3883 6a3c cabc 93bc 4d3a 023d 8f73 14bc
000001c0: fb7e 2a3c 8144 cabc 4771 f93a d4e0 98bc
000001d0: b92a b03a 0df1 b83b d6a0 9339 d39d ffbb
000001e0: db8e 493c cc92 fabb bb5f b4bc be9f 5bbc
000001f0: ad7f 86bc 63d6 9ebc 8f02 30bb bb53 bcbb

network_body._body_endoder.seq_layers.2.weight f4 [128, 128]
-0.0073126056 0.06469739 -0.032848086 0.013683589 0.0606584 0.018492494 -0.32178456 -0.07435875
0.18022683 -0.050260395 0.010170278 -0.051615894 -0.05965502 -0.07835914 0.11841432 -0.036198642
0.14190336 0.057491403 -0.037292335 0.13077968 -0.042264823 0.03463194 -0.19718269 0.021585083
0.030259531 0.06570555 0.009111837 0.110831544 0.1688822 0.045384012 -0.07792417 0.009713714
-0.3312629 -0.21932048 0.1178053 -0.0046955775 0.273731 -0.05729262 -0.09874664 -0.11869345
-0.08932811 -0.0040073246 0.00562601 0.110900514 0.0224254 -0.050198715 -0.064554274 -0.075089104
-0.082267895 -0.09107429 -0.102722384 -0.012878317 0.009357277 -0.12001629 -0.114268854 -0.14385003
0.121462956 -0.04651196 -0.025815867 0.04261887 -0.06729252 0.16333231 -0.097160384 -0.05886854
0.112164 -0.03793943 0.04291727 -0.07991396 -0.021688696 -0.113485776 0.1015786 0.13580172
0.03190857 0.071001 0.0932959 0.07816231 -0.17396605 0.15213268 -0.07966024 0.12053284
-0.11125474 0.058754914 -0.099281155 -0.002804866 -0.019253343 -0.057627268 0.18944426 -0.04519869
0.03938428 0.042200726 0.11391226 -0.20004848 0.0026612685 -0.104312316 0.08957596 -0.037597336
0.057771273 0.06982231 -0.09419798 -0.03475763 -0.1718731 -0.08452593 0.066312626 0.05863055
-0.09232143 -0.043437947 0.050074767 0.13923627 0.044434395 -0.02070643 -0.056228247 -0.106055796
-0.18705365 0.09255821 0.02808496 -0.13758507 -0.030559866 -0.06833001 0.03770709 -0.01567736
-0.08067514 0.048032798 -0.080567196 -0.06515829 -0.03641123 -0.18762794 0.024451064 -0.048484154
0.042538293 0.05293149 0.1992675 -0.049416516 -0.072605185 -0.07999929 0.15822065 0.07916877
-0.0092222 -0.13949402 -0.00981757 -0.06357766 0.049161173 -0.08808552 0.08949653 0.036560107
-0.029337402 -0.0570977 0.004617719 0.09819038 0.18959849 -0.21632949 0.10998738 0.102125525
0.03482254 -0.06212952 0.018440692 0.10955187 0.23298484 -0.0035465215 0.11547235 -0.06387281
0.110904604 -0.03596616 0.0843406 -0.005601325 0.11857758 0.05167995 -0.037893664 0.020610252
-0.02436704 -0.11071987 -0.08720365 -0.078262106 0.023656797 0.022365067 -0.15392472 -0.010835586
-0.09207026 -0.10649869 -0.20915449 0.081093036 0.14037529 0.08194702 0.069296695 -0.01845685
0.05524024 -0.07164255 0.007350956 -0.15337655 0.03044235 0.028722035 -0.051437527 0.01759888
0.020885061 -0.07653661 -0.036342278 0.014695007 0.04462065 0.17328864 -0.017910987 0.100132875
0.10266923 0.019868882 0.19177248 -0.090116985 -0.097694315 0.17099239 0.011438977 0.02578068
-0.096989416 0.10093015 0.07735228 -0.048302904 0.021342602 0.021362236 0.14704403 -0.03136629
0.08112052 -0.14599834 -0.039392993 -0.016356036 0.13243651 0.07892776 0.10468609 -0.01951067
-0.07092305 -0.045536347 -0.029956045 -0.041111834 -0.13673386 -0.0759973 0.061946757 0.025948329
0.07339347 -0.101423115 0.1258979 -0.07911808 -0.004652338 -0.053979125 -0.039776914 -0.04716539
0.119064786 0.11606685 0.0014634483 -0.05052827 -0.02066325 -0.16353147 0.038615 0.03791769
-0.1322652 -0.032890752 -0.117033415 -0.07072209 0.051934056 0.06440225 0.060045417 -0.15382919
00000000: 959e efbb 1180 843d b78b 06bd 2231 603c
00000010: f174 783d 927d 973c f2c0 a4be 6649 98bd
00000020: 628d 383e d8dd 4dbd 3da1 263c 306b 53bd
00000030: d258 74bd c27a a0bd 3583 f23d 0745 14bd
00000040: 1d4f 113e 1b7c 6b3d d9bf 18bd 1ceb 053e
00000050: e11d 2dbd 39da 0d3d 42ea 49be 33d3 b03c
00000060: d6e2 f73c a290 863d d049 153c a6fb e23d
00000070: 75ef 2c3e 96e4 393d b596 9fbd 4526 1f3c
00000080: 4a9b a9be 8c95 60be e843 f13d 5cdd 99bb
00000090: 7826 8c3e abab 6abd ae3b cabd 8d15 f3bd
000000a0: a8f1 b6bd e04f 83bb 645a b83b cf1f e33d
000000b0: 79b5 b73c 2b9d 4dbd 0835 84bd 51c8 99bd
000000c0: 127c a8bd 2885 babd 1d60 d2bd 94ff 52bc
000000d0: 444f 193c 1acb f5bd ca05 eabd 6c4d 13be
000000e0: 92c1 f83d 5383 3ebd cc7b d3bc 2091 2e3d
000000f0: a9d0 89bd 9640 273e 06fc c6bd 2320 71bd
00000100: 3db6 e53d 6066 1bbd 05ca 2f3d eea9 a3bd
00000110: 7eac b1bc 3b6b e8bd 7108 d03d 9b0f 0b3e
00000120: 90b2 023d f968 913d ec11 bf3d 9013 a03d
00000130: 2824 32be abc8 1b3e e824 a3bd ecd9 f63d
00000140: 86d9 e3bd fea8 703d eb53 cbbd d8d1 37bb
00000150: 30b9 9dbc 920a 6cbd adfd 413e 4322 39bd
00000160: 6951 213d abda 2c3d d54a e93d 82d9 4cbe
00000170: ad68 2e3b b2a1 d5bd 9a73 b73d aaff 19bd
00000180: 92a1 6c3d 00ff 8e3d dfea c0bd 045e 0ebd
00000190: 80ff 2fbe ee1b adbd eace 873d 9626 703d
000001a0: 0513 bdbd fdeb 31bd 331b 4d3d f493 0e3e
000001b0: d700 363d 88a0 a9bc 974f 66bd c833 d9bd
000001c0: fe8a 3fbe 298f bd3d 6e12 e63c 1ae3 0cbe
000001d0: af58 fabc 9bf0 8bbd c072 1a3d cf6d 80bc
000001e0: 0239 a5bd 0abe 443d 6a00 a5bd b671 85bd
000001f0: f123 15bd 8a21 40be 994d c83c 5297 46bd
00000200: a23c 2e3d b1ce 583d c80c 4c3e f968 4abd
00000210: 07b2 94bd abd6 a3bd 9804 223e 3c23 a23d
00000220: b618 17bc 85d7 0ebe e0d9 20bc 0135 82bd
00000230: 3a5d 493d 2e66 b4bd f549 b73d 0dc0 153d
00000240: fe54 f0bc 47df 69bd 3c50 973b 0a18 c93d
00000250: 1b26 423e 7a85 5dbe 1041 e13d 3027 d13d
00000260: 14a2 0e3d 867b 7ebd ef10 973c bb5c e03d
00000270: 9493 6e3e c26c 68bb c47c ec3d bfcf 82bd
00000280: f421 e33d 4151 13bd c4ba ac3d 528b b7bb
00000290: cdd8 f23d 5bae 533d 6336 1bbd d5d6 a83c
000002a0: 639d c7bc 19c1 e2bd d497 b2bd e247 a0bd
000002b0: e6cb c13c f236 b73c 719e 1dbe be87 31bc
000002c0: 558f bcbd fc1b dabd 982c 56be 1b14 a63d
000002d0: 8abe 0f3e d7d3 a73d 6deb 8d3d d232 97bc
000002e0: 9743 623d 54b9 92bd 4ae0 f03b be0e 1dbe
000002f0: 3c62 f93c 794a eb3c 28b0 52bd 872b 903c
00000300: 2617 ab3c 3abf 9cbd a4db 14bd 54c3 703c
00000310: 25c4 363d 9472 313e 10ba 92bc 7712 cd3d
00000320: 3f44 d23d 11c4 a23c 0160 443e 418f b8bd
00000330: f513 c8bd a118 2f3e 8c6a 3b3c 0132 d33c
00000340: 63a2 c6bd 77b4 ce3d df6a 9e3d 44d9 45bd
00000350: aed6 ae3c dbff ae3c b692 163e f079 00bd
00000360: 8422 a63d 9780 15be 8c5a 21bd 18fd 85bc
00000370: 709d 073e e1a4 a13d a965 d63d d7d4 9fbc
00000380: 1b40 91bd 5284 3abd 6166 f5bc e264 28bd
00000390: f603 0cbe 79a4 9bbd e2bb 7d3d 9791 d43c
000003a0: 514f 963d ecb6 cfbd 61eb 003e a908 a2bd
000003b0: a472 98bb 3719 5dbd 1eed 22bd 7f30 41bd
000003c0: 3dd8 f33d 75b4 ed3d 2dd1 bf3a bbf6 4ebd
000003d0: fa45 a9bc cb74 27be c32a 1e3d 944f 1b3d
000003e0: 8770 07be 74b8 06bd 37af efbd bed6 90bd
000003f0: ceb8 543d 54e5 833d 2ff2 753d 6685 1dbe

network_body._body_endoder.seq_layers.2.bias f4 [128]
0.0062103756 -0.0040082596 0.0052179187 0.007000408 -0.00013695942 -0.010343838 -0.015704129 0.016237825
0.020211112 -0.0016270365 0.011517438 0.016563524 -0.0006015187 0.021260519 -0.0044050817 -0.0023192447
0.0014374588 -0.0083148265 0.008369829 -0.0049338425 -0.006693956 0.016729835 -0.004329645 -0.0066108983
-0.008501919 -0.006098941 0.018910173 -0.004170913 -0.012275005 -0.005785155 -0.0007412054 -0.005687111
0.020756101 0.0011992017 -0.0014133633 0.0081086615 0.019579662 0.018109608 0.01773065 0.0037822574
0.0026051335 0.026604004 -0.005982044 -0.009105626 0.0005732862 0.01134348 0.018685738 0.009732996
0.01877156 -0.00029991494 0.02435499 -0.0122613935 0.0022925031 0.003442748 0.02173947 -0.012986523
-0.0011299482 0.011536387 0.0020885335 -0.0047908835 0.0020148978 0.009324726 0.007238729 0.012399721
-0.000718003 -0.0077492404 0.021434782 -0.014243288 -0.01136385 0.003912697 0.0031262054 -0.0021706407
0.005574909 0.0077416985 -0.0029614076 0.009656575 0.024001371 -0.008057757 0.013807867 -0.007684327
0.007648729 -0.017293146 -0.0050114696 0.029520681 -0.000751837 0.00594667 -0.009456943 -0.011236788
0.000981632 -0.00059076765 -0.014751002 0.00024159385 0.009122073 -0.005656385 0.027078634 0.012300687
-0.015603349 -0.008459921 0.002727214 -0.003994273 -0.0040999483 0.017549897 0.0044565443 0.017517572
0.0049827946 -0.007590822 0.007170676 -0.0074044876 0.0027273518 -0.013998208 -0.011033809 -0.009744451
-0.00799267 -0.0109944185 -0.004566242 0.0030875471 0.0030526207 0.0008429125 -0.003692338 -0.002191411
0.014662625 0.012423978 -0.0043073776 0.014071381 -0.007057615 -0.0124646025 -1.9238073e-06 0.01543736
00000000: 6880 cb3b b857 83bb 13fb aa3b ae63 e53b
00000010: c49c 0fb9 3379 29bc f2a5 80bc 3005 853c
00000020: c691 a53c 4942 d5ba a3b3 3c3c 3ab0 873c
00000030: 3daf 1dba 8a2a ae3c 8158 90bb 78fe 17bb
00000040: 1d69 bc3a e93a 08bc 9b21 093c 12ac a1bb
00000050: f958 dbbb 020d 893c b2df 8dbb 3ca0 d8bb
00000060: a24b 0bbc a0d9 c7bb 82e9 9a3c 27ac 88bb
00000070: 1a1d 49bc 6691 bdbb 744d 42ba f25a babb
00000080: b308 aa3c 882e 9d3a 9a40 b9ba 31da 043c
00000090: 8765 a03c 9a5a 943c de3f 913c c0df 773b
000000a0: e3ba 2a3b a4f0 d93c 0605 c4bb c32f 15bc
000000b0: 9648 163a 01da 393c d512 993c 2577 1f3c
000000c0: d1c6 993c e73d 9db9 1e84 c73c 03e4 48bc
000000d0: d23d 163b ba9f 613b f916 b23c 6dc5 54bc
000000e0: c51a 94ba 1d03 3d3c c7df 083b d8fc 9cbb
000000f0: 600c 043b bcc6 183c dc32 ed3b 3328 4b3c
00000100: 5e38 3cba 57ed fdbb ff97 af3c ae5c 69bc
00000110: 712f 3abc 1536 803b 06e1 4c3b 4f41 0ebb
00000120: baad b63b 13ae fd3b 2d14 42bb 9c36 1e3c
00000130: 869e c43c af04 04bc 643a 623c cfcc fbbb
00000140: 30a2 fa3b 5baa 8dbc 4137 a4bb 5bd5 f13c
00000150: ed16 45ba 49dc c23b 4bf1 1abc 811a 38bc
00000160: 1baa 803a bfdd 1aba 30ae 71bc 5b54 7d39
00000170: bf74 153c 3259 b9bb 03d4 dd3c d288 493c
00000180: 30a5 7fbc 7b9b 0abc 0fbb 323b 64e2 82bb
00000190: dc58 86bb cdc4 8f3c 3408 923b 0381 8f3c
000001a0: b646 a33b 6ebc f8bb fdf7 ea3b 58a1 f2bb
000001b0: 5fbd 323b bd58 65bc 26c7 34bc 31a7 1fbc
000001c0: b0f3 02bc ef21 34bc 6aa0 95bb 7258 4a3b
000001d0: 7a0e 483b e6f6 5c3a 27fb 71bb c79d 0fbb
000001e0: 823b 703c f18d 4b3c e724 8dbb a68b 663c
000001f0: 9143 e7bb 5538 4cbc c21a 01b6 fbec 7c3c

action_model._discrete_distribution.branches.0.weight f4 [9, 128]
0.019509716 -0.011471848 0.01076808 -0.006632827 0.041438565 0.00088033365 0.008109143 0.0066069635
0.0057572196 -0.01070889 0.021283837 0.048741546 0.018514408 -0.0075990753 0.020440558 -0.013514375
0.036265023 -0.009648065 0.015627632 0.0006339225 0.013685582 0.03675464 0.032672033 0.01735566
0.015354363 0.011838088 0.034195393 0.024802063 -0.0013400196 -0.00044080478 -0.0061367867 0.029104307
0.03778292 -0.007434834 0.010859329 -0.021178002 0.060079914 0.004561802 0.036095977 0.011092287
0.037612017 0.02875199 -0.0018064859 -0.0042348388 0.02451999 0.019101338 0.022540377 0.008112177
0.02863324 0.028148515 0.030334761 0.01322251 0.024525367 0.050376713 0.025354084 -0.013195949
-0.03282935 0.026723607 0.02315988 -0.010043433 0.025659462 0.016289208 0.023712067 0.02847901
-0.021224536 -0.01129494 0.025396436 0.003333865 0.0010779982 0.009869301 0.018517265 0.0052250996
-0.0014214134 0.032828107 -0.01661624 0.029330375 0.021463865 -0.012358783 0.03465642 -0.011799426
0.032479025 -0.00579186 -0.0052450597 0.034819156 -0.012512322 0.0405759 -0.017855974 0.008204751
-0.008227016 0.029313313 -0.0029194728 0.035441745 0.0065407567 0.005682353 0.018454663 0.038171764
-0.00041305603 -0.0056019733 -0.008995968 -0.011210762 0.023448385 0.0198538 0.019635404 0.007537298
-0.01628754 0.0036091718 0.021251746 -0.016008947 0.033445645 -0.014886698 0.009424301 -0.008933988
0.00092269824 -0.005489031 0.00490081 0.038758017 0.046845283 -0.009953234 0.00086085696 0.03776722
0.023191871 0.026365368 0.018096345 0.04019751 0.002384061 0.006742824 0.036432207 -0.00715602
0.0052039158 -0.008156497 0.0070185433 0.02446682 -0.010217801 -0.018170329 0.0014676432 0.034376357
0.019028673 0.0060968245 0.015955752 -0.0010813827 -0.0005034605 0.016256347 -0.0031922709 -0.01093232
-0.0092415875 -0.004539984 -0.010070633 -0.004259463 0.006386269 0.003810445 -0.008700887 0.018424403
-0.008145926 -0.029524429 0.01091638 -0.014973674 -0.006569115 -0.008411502 -0.006995718 -0.011671439
0.021855164 -0.0071003246 -0.016430123 0.001996676 0.0064479215 0.030535588 -0.0045498805 0.016223246
0.001860112 -0.008812163 -0.013026485 -0.02861212 -0.02265095 0.019467356 0.013157094 -0.01739438
0.015801374 -0.01563287 0.019491056 -0.0019281915 -0.0108888615 0.0021671725 0.009050512 -0.0035819514
-0.0018297442 -0.015750293 -0.0192757 -0.021309841 -0.005376151 0.024986746 -0.0171703 0.0031884986
-0.0125403395 -0.0052732024 0.0113206 -0.0039211633 -0.013612235 0.026923839 -0.028330123 -0.008498755
0.013153472 -0.0017492386 -0.0059930654 0.011592041 0.0044669327 -0.011091492 -0.01109924 -0.000756212
0.009348844 -0.0064939125 -0.004267571 0.03341953 -0.026270952 -0.0034730048 -0.012543356 0.0061182245
0.0035040742 0.0038107515 -0.011759801 -0.007883139 0.037896793 -0.017574297 -0.017121177 0.006979517
-0.0029203093 -0.001986223 0.01670642 -0.026433472 -0.017857231 -0.03320554 0.01393131 0.020341229
-0.01301088 0.01126227 -0.0018190712 -0.009625334 -0.03474978 -0.015351079 -0.0038573784 -0.0020245663
0.0010632188 -0.011990445 -0.0042329147 0.009437808 -0.013799621 -0.012580921 -0.005986081 -0.006492209
-0.012750498 -0.013740058 0.0037810546 -0.006983401 0.012198597 -0.0054735807 -0.0016410967 0.021410605
00000000: d7d2 9f3c 6bf4 3bbc 9a6c 303c 3058 d9bb
00000010: 7cbb 293d 31c6 663a 36dc 043c 3a7f d83b
00000020: 0fa7 bc3b 5774 2fbc 715b ae3c 37a5 473d
00000030: 87ab 973c aa01 f9bb f572 a73c 666b 5dbc
00000040: a28a 143d eb12 1ebc 8505 803c d22d 263a
00000050: 7e39 603c 098c 163d 1cd3 053d 752d 8e3c
00000060: de90 7b3c 8af4 413c 7810 0c3d b22d cb3c
00000070: 99a3 afba d11b e7b9 1917 c9bb 286c ee3c
00000080: 43c2 1a3d e89f f3bb 54eb 313c 7d7d adbc
00000090: 5b16 763d 2b7b 953b 60d9 133d 6cbc 353c
000000a0: 0f0f 1a3d 4b89 eb3c 9cc7 ecba 67c4 8abb
000000b0: 25de c83c 697a 9c3c 99a6 b83c f0e8 043c
000000c0: 4290 ea3c b797 e63c 9b80 f83c 3aa3 583c
000000d0: 6ce9 c83c d057 4e3d 5eb3 cf3c d233 58bc
000000e0: 1278 06bd 77eb da3c cab9 bd3c 368d 24bc
000000f0: cb33 d23c f270 853c cf3f c23c d04c e93c
00000100: 14df adbc 690e 39bc 300c d03c f97c 5a3b
00000110: 9e4b 8d3a d9b2 213c 85b1 973c 5037 ab3b
00000120: b84e baba c476 063d c81e 88bc 4146 f03c
00000130: fdd4 af3c 7e7c 4abc e4f3 0d3d 6152 41bc
00000140: ba08 053d a5c9 bdbb c0de abbb 889e 0e3d
00000150: 7b00 4dbc ea32 263d b146 92bc 386d 063c
00000160: 9bca 06bc 7922 f03c a054 3fbb 5d2b 113d
00000170: d853 d63b 0833 ba3b 3c2e 973c ff59 1c3d
00000180: 718f d8b9 c290 b7bb d363 13bc 58ad 37bc
00000190: d416 c03c 70a4 a23c 6dda a03c 70fb f63b
000001a0: 726d 85bc db87 6c3b 2418 ae3c 3225 83bc
000001b0: 4dfe 083d 56e7 73bc 6268 1a3c dd5f 12bc
000001c0: 3be1 713a 54dd b3bb f996 a03b bac0 1e3d
000001d0: d7e0 3f3d e412 23bc 22ab 613a cdb1 1a3d
000001e0: e1fc bd3c 2ffc d73c c93e 943c 25a6 243d
000001f0: e83d 1c3b e8f2 dc3b f039 153d 0c7d eabb
00000200: 9c85 aa3b d4a2 05bc cffb e53b a46e c83c
00000210: 9068 27bc f1d9 94bc ef5d c03a 39ce 0c3d
00000220: 05e2 9b3c dfc7 c73b a3b5 823c 2fbd 8dba
00000230: aafa 03ba 082c 853c 6b35 51bb 791d 33bc
00000240: 076a 17bc 25c4 94bb 4cff 24bc f792 8bbb
00000250: e843 d13b a9b8 793b 2a8e 0ebc c6ee 963c
00000260: 7d76 05bc 37dd f1bc 9eda 323c 2454 75bc
00000270: bb41 d7bb 66d0 09bc 563c e5bb 9039 3fbc
00000280: 9a09 b33c d7a9 e8bb 7798 86bc aada 023b
00000290: 1649 d33b c525 fa3c 2a17 95bb 9de6 843c
000002a0: 00cf f33a e460 10bc 0a6d 55bc f763 eabc
000002b0: 7c8e b9bc 017a 9f3c da90 573c a97e 8ebc
000002c0: e271 813c 8110 80bc b5ab 9f3c 5fbb fcba
000002d0: 3267 32bc 1f07 0e3b 9948 143c 2cbf 6abb
000002e0: 07d4 efba c206 81bc 13e8 9dbc fa91 aebc
000002f0: 6c2a b0bb 01b1 cc3c bba8 8cbc 21f6 503b
00000300: ff75 4dbc d4ca acbb 0a7a 393c 1a7d 80bb
00000310: da05 5fbc 628f dc3c 9314 e8bc 5d3e 0bbc
00000320: a981 573c b546 e5ba 7a61 c4bb 8bec 3d3c
00000330: 595f 923b 17b9 35bc 96d9 35bc 873c 46ba
00000340: e52b 193c e3ca d4bb fbd6 8bbb ebe2 083d
00000350: 2e36 d7bc 5a9b 63bb a682 4dbc 637b c83b
00000360: 9ca4 653b cdbd 793b 2eac 40bc 4828 01bc
00000370: ab39 1b3d f9f7 8fbc b641 8cbc 6fb4 e43b
00000380: a962 3fbb 4b2b 02bb e7db 883c 028b d8bc
00000390: 5449 92bc 8802 08bd 2640 643c a6a2 a63c
000003a0: 962b 55bc 6285 383c e76d eeba 94b3 1dbc
000003b0: c955 0ebd 1883 7bbc 12cc 7cbb 96ae 04bb
000003c0: b45b 8b3a 9273 44bc 43b4 8abb 09a1 1a3c
000003d0: ce17 62bc 3520 4ebc e326 c4bb 99bc d4bb
000003e0: 77e7 50bc fb1d 61bc 92cb 773b 03d5 e4bb
000003f0: a0dc 473c b95b b3bb 111a d7ba 4b65 af3c

action_model._discrete_distribution.branches.0.bias f4 [9]
-0.0073037427 -0.0021279978 0.014178348 0.0017684979 -0.0007848377 -0.011840223 -0.006004999 -0.00038082286
-0.0017738733
00000000: 3c54 efbb e175 0bbb 4d4c 683c f1cc e73a
00000010: 91bd 4dba 7ffd 41bc 95c5 c4bb 2ea9 c7b9
00000020: 5081 e8ba
