Assets/ML Models/CubeMatcher70.onnx (onnx, 75619 bytes, 6 tensors)

network_body._body_endoder.seq_layers.0.weight f4 [128, 1]
0.12672487 -0.5031732 -1.8388147 0.40082437 -0.021022707 -0.08651386 1.1118597 0.0053845346
0.39441636 -0.7203732 -0.5646033 -0.25365695 0.47765756 -0.4547439 -0.8154958 -0.844303
-0.27939707 -1.0053807 -0.49552974 0.691076 -0.40676975 -0.027489647 2.041891 1.8653316
0.984027 1.1793455 0.27865788 0.80895275 -1.3481836 -1.1514155 0.6356833 0.33393747
1.1454508 -0.9034657 -1.9127342 -1.2324929 -0.6851333 -0.022035027 1.2996413 -1.220867
0.6063948 0.0011073789 -0.735854 -0.15523976 1.4920276 -1.5083336 -0.60165566 -0.53240335
-0.7807209 -0.91525626 1.4149284 -1.3249971 1.0287554 -1.747926 -1.0985738 -0.7719015
-1.2310526 2.1543677 0.30511114 0.20223582 -0.3889354 1.205815 1.234394 -1.0823009
-1.3264743 -1.3083116 -0.080778815 0.2149609 -0.793676 0.73407686 1.0401849 0.28545904
0.038439523 0.62097216 -2.165467 -0.49459204 -1.4130048 -0.9082022 -0.71756995 -2.20649
1.6808859 1.629436 -0.64061505 -0.8413795 -0.44423595 -1.7428628 1.2319437 -1.0760257
-1.3345605 -1.2641723 -0.646577 1.3461363 -0.6162091 -0.8352369 0.57780415 -1.266627
0.19732586 -0.467316 -0.8315729 -0.3499904 -1.2929596 0.44681165 -0.45413128 0.07977701
1.5557919 -2.0053375 0.5018083 -0.66489416 -1.0855198 -0.57306767 -0.7177578 -1.487718
0.32116944 0.11372102 -0.5404819 -0.3745506 2.0991318 -0.619467 -2.3593454 -0.42143667
0.033021163 -0.48927742 -1.4716085 1.4944365 0.26037785 0.17163914 -0.03612136 -0.70156825
00000000: 2ac4 013e f5cf 00bf 485e ebbf da38 cd3e
00000010: d037 acbc 2e2e b1bd 6b51 8e3f c070 b03b
00000020: f1f0 c93e 616a 38bf d889 10bf 53df 81be
00000030: 888f f43e 31d4 e8be 55c4 50bf 3e24 58bf
00000040: 220d 8fbe 51b0 80bf 13b6 fdbe 5bea 303f
00000050: 2044 d0be f831 e1bc 58ae 0240 30c3 ee3f
00000060: 32e9 7b3f cbf4 963f 3fac 8e3e 8717 4f3f
00000070: 4891 acbf 9561 93bf 24bc 223f daf9 aa3e
00000080: 229e 923f 8749 67bf 79d4 f4bf 54c2 9dbf
00000090: e564 2fbf cd82 b4bc a55a a63f 5f45 9cbf
000000a0: b13c 1b3f 7825 913a ee60 3cbf 2cf7 1ebe
000000b0: c3fa be3f 1311 c1bf 1b06 1abf 964b 08bf
000000c0: 53dd 47bf 3c4e 6abf 601c b53f 8199 a9bf
000000d0: 42ae 833f 0abc dfbf 119e 8cbf 569b 45bf
000000e0: 2293 9dbf 29e1 0940 8737 9c3e e816 4f3e
000000f0: 8a22 c7be 2558 9a3f 9f00 9e3f d688 8abf
00000100: e9c9 a9bf c176 a7bf 5d6f a5bd b61e 5c3e
00000110: 5a2e 4bbf 76ec 3b3f c724 853f b027 923e
00000120: c372 1d3d 08f8 1e3f 0397 0ac0 2b3b fdbe
00000130: 57dd b4bf f07f 68bf aab2 37bf 2237 0dc0
00000140: 4527 d73f 5c91 d03f 59ff 23bf a664 57bf
00000150: e572 e3be 2116 dfbf 55b0 9d3f 36bb 89bf
00000160: e1d2 aabf 66d0 a1bf 1286 25bf 324e ac3f
00000170: e1bf 1dbf 16d2 55bf f9ea 133f d520 a2bf
00000180: ca0f 4a3e 0b44 efbe f6e1 54bf f131 b3be
00000190: b37f a5bf 7fc4 e43e e583 e8be 2162 a33d
000001a0: 3024 c73f 7357 00c0 8276 003f 8136 2abf
000001b0: 50f2 8abf 90b4 12bf fabe 37bf 8b6d bebf
000001c0: 5270 a43e 91e6 e83d 065d 0abf 19c5 bfbe
000001d0: 2d58 0640 6495 1ebf 84ff 16c0 8cc6 d7be
000001e0: 3341 073d 9282 fabe ab5d bcbf b249 bf3f
000001f0: 3f50 853e 2cc2 2f3e fef3 13bd fa99 33bf

network_body._body_endoder.seq_layers.0.bias f4 [128]
-0.18384796 -0.27277115 0.22384164 -0.18261343 0.2787423 0.23114438 -0.16913836 0.18906929
-0.10642171 0.053705905 0.061645273 -0.15263936 -0.13839966 -0.19700068 -0.17215593 -0.0048791226
-0.25371045 0.10960863 -0.06987975 -0.14703076 -0.25636193 0.28089282 -0.096450016 -0.12817152
-0.07256187 -0.1799184 -0.16831753 0.053499784 0.1783779 0.13256124 -0.16225356 -0.1832026
-0.12843001 0.20398232 0.22230561 -0.053493366 0.14128716 0.22296447 -0.15563087 0.15741667
-0.16257766 0.2572477 -0.10699275 0.28857794 -0.16062926 0.15952358 -0.22448671 -0.1705561
0.13066715 -0.19017206 -0.1457629 0.182921 -0.038735654 0.16925608 -0.033002857 -0.15755467
0.15935996 -0.11726481 -0.17761752 -0.08321849 -0.02805673 -0.13177145 0.16339897 0.17026898
0.13607106 0.10379183 0.25244963 -0.116912454 -0.059052028 -0.17992091 -0.14613086 0.049106255
-0.22042589 -0.09273653 0.20819394 -0.16339828 0.18053962 0.16205083 0.17484073 0.17114848
-0.18761593 -0.051445317 -0.08307916 -0.0303009 0.19009739 0.1965348 -0.11103183 0.09729583
0.17318626 0.121018946 -0.17287308 -0.09020803 0.1258024 -0.05846035 -0.1909511 0.16058128
-0.13839689 -0.15369706 0.07325006 -0.29432544 0.10003156 -0.12665056 -0.24513096 -0.21422006
-0.058480695 0.11811658 -0.122136466 -0.14365777 0.13726486 -0.27684394 -0.056458037 0.17964368
-0.15958305 -0.225563 -0.06677848 -0.29098853 -0.08784484 -0.2501003 0.14453015 -0.26493606
-0.18283047 -0.26387432 0.14429547 -0.20395263 -0.007922236 -0.20671324 0.18769622 0.0885278
00000000: a442 3cbe a9a8 8bbe be36 653e 04ff 3abe
00000010: 50b7 8e3e 1db1 6c3e 9b32 2dbe 619b 413e
00000020: a0f3 d9bd b9fa 5b3d c17f 7c3d 7e4d 1cbe
00000030: a4b8 0dbe 8cba 49be a549 30be 0ce1 9fbb
00000040: 56e6 81be 7d7a e03d 1d1d 8fbd 3b8f 16be
00000050: df41 83be 2fd1 8f3e 9687 c5bd 653f 03be
00000060: 519b 94bd 873c 38be 6e5b 2cbe 9722 5b3d
00000070: b2a8 363e 22be 073e cc25 26be 7699 3bbe
00000080: 2883 03be bee0 503e 15a4 633e dc1b 5bbd
00000090: 95ad 103e cc50 643e b35d 1fbe d631 213e
000000a0: c27a 26be f8b5 833e 041f dbbd 7dc0 933e
000000b0: ff7b 24be 265a 233e d8df 65be 42a6 2ebe
000000c0: 9ccd 053e 77bc 42be df42 15be a54f 3b3e
000000d0: 47a9 1ebd 7751 2d3e 012e 07bd 0356 21be
000000e0: 422f 233e 8828 f0bd 5ee1 35be 756e aabd
000000f0: 3ad7 e5bc 18ef 06be 0f52 273e fe5a 2e3e
00000100: 3656 0b3e d090 d43d 1441 813e cc6f efbd
00000110: 8ae0 71bd 303d 38be 54a3 15be a423 493d
00000120: 53b7 61be a6ec bdbd cb30 553e e151 27be
00000130: 61df 383e a7f0 253e 7309 333e 8c41 2f3e
00000140: 641e 40be 53b8 52bd 6825 aabd 9839 f8bc
00000150: e4a8 423e 6b40 493e a864 e3bd 0943 c73d
00000160: bd57 313e c8d8 f73d a405 31be fdbe b8bd
00000170: 58d2 003e 1f74 6fbd af88 43be 6b6f 243e
00000180: eab7 0dbe c362 1dbe 2104 963d d3b1 96be
00000190: 59dd cc3d afb0 01be 9c03 7bbe 815c 5bbe
000001a0: 7489 6fbd 1be7 f13d af22 fabd 061b 13be
000001b0: 298f 0c3e 7dbe 8dbe 8b40 67bd 83f4 373e
000001c0: bd69 23be fdf9 66be 28c3 88bd 73fc 94be
000001d0: ffe7 b3bd 260d 80be b6ff 133e b3a5 87be
000001e0: e937 3bbe 891a 87be 31c2 133e f5d8 50be
000001f0: 44cc 01bc a3ac 53be 7033 403e 104e b53d

network_body._body_endoder.seq_layers.2.weight f4 [128, 128]
0.051234003 0.04203679 -0.029837063 0.13569492 -0.01944417 -0.25767782 0.09318793 0.07103633
-0.024133602 0.10101171 -0.070635304 0.11343621 0.23178945 0.099327676 0.18470003 0.090396464
0.043674618 0.20416376 0.08647154 -0.03263353 0.014591565 -0.0579842 -0.0062728683 0.18541275
0.06995348 0.25748447 0.026095394 0.038015094 0.19662064 0.038543284 -0.03554765 0.0134701105
0.034514412 -0.022329815 0.17479561 0.060838424 0.021100415 -0.15796006 -0.03460173 0.05764376
0.032020126 -0.20558406 0.007017157 -0.108204596 0.19818711 0.08959667 -0.05691852 0.016949622
0.050744917 0.07178972 -0.065394394 -0.016604071 -0.15057862 0.15762861 0.14166921 0.25690484
-0.10303016 0.024043743 0.04946553 0.06260262 -0.041027714 0.0872681 0.06270115 0.026841406
-0.03277749 0.18452486 -0.30005062 0.08420183 0.14099132 0.20591816 0.10711961 0.118871875
0.08361458 0.15305673 0.20931746 0.0241466 0.06513836 -0.038750954 0.052941952 0.22406557
-0.12362094 -0.09394758 -0.056802496 0.08770696 -0.18608421 0.16448978 -0.007184214 0.2795482
0.028631533 0.10718752 0.022688631 0.1836631 0.07376806 0.09515789 0.017337017 -0.028446013
0.09125901 0.12692027 0.24418847 -0.0892717 0.08534935 0.017807787 0.063999526 0.124192216
0.081384376 0.09001769 0.008811493 0.0952776 -0.06231464 0.16014674 0.056309056 0.0044359597
0.025024245 0.1806027 0.021410273 0.13167801 0.026759164 0.116377085 0.14485525 0.05906566
-0.032855853 -0.0196803 -0.14789246 0.046724487 0.06603488 0.08034276 -0.098877914 -0.0076618586
-0.056210224 -0.16394031 0.04799147 0.11010197 0.1963625 0.22693814 -0.07227041 0.15754063
-0.028601227 -0.006143638 0.01940274 -0.024969306 -0.13487677 -0.23185898 -0.1386056 -0.18134403
-0.28738788 0.18547064 -0.054378387 0.073015325 -0.3556657 0.2882035 -0.07249956 0.19217981
0.05228293 -0.13766864 -0.15390874 0.152831 0.3389476 0.26745728 -0.20790632 -0.07184753
-0.0075567705 0.06477052 0.25897124 -0.124451466 0.12130294 0.072727896 -0.12458017 0.16648853
0.06421736 0.29206058 -0.16752975 0.24074003 -0.17946056 0.18496074 -0.111696236 -0.23930858
0.008630415 -0.2340043 0.06970092 0.3154712 0.03957355 -0.0067710727 -0.089292586 -0.28198913
0.050044008 -0.055440858 0.07104911 -0.15097366 0.032960236 0.098637186 0.016954485 0.18714781
0.15803242 0.1565756 0.16415538 0.03763612 -0.16404535 0.02924075 -0.062319737 0.04818731
-0.38142776 -0.11096699 0.30541 -0.18762381 0.24408823 0.1741584 0.0990031 0.30394167
-0.056889687 0.08327002 -0.050200246 -0.03003572 0.07661798 0.24093859 0.089606605 0.06810099
0.26713595 0.19660746 -0.24202284 0.001180828 -0.10169923 -0.20571522 -0.17721675 0.054794203
-0.01926032 -0.12318033 -0.038528673 -0.1880349 0.06184709 0.010262343 -0.14990987 -0.011893508
-0.062335342 0.239364 -0.04777185 -0.2759828 0.16741917 -0.19844112 0.003857321 0.07660561
-0.0015937156 -0.19752759 -0.06428752 -0.25093275 -0.13203147 -0.122867234 0.10688297 -0.24825145
-0.45851055 -0.088688456 0.31498545 -0.045989722 -0.037078016 -0.20173067 0.093281895 0.06648386
00000000: bfda 513d c52e 2c3d db6c f4bc 9cf3 0a3e
00000010: 6149 9fbc 59ee 83be 50d9 be3d 7f7b 913d
00000020: d5b3 c5bc 3adf ce3d 3ea9 90bd 3e51 e83d
00000030: 375a 6d3e 4f6c cb3d 0122 3d3e c821 b93d
00000040: 28e4 323d 4e10 513e fe17 b13d bdaa 05bd
00000050: 7611 6f3c d780 6dbd a28c cdbb d7dc 3d3e
00000060: c543 8f3d 01d5 833e 02c6 d53c b7b5 1b3d
00000070: ec56 493e 90df 1d3d 6a9a 11bd bdb1 5c3c
00000080: fc5e 0d3d 04ed b6bc 9ffd 323e b631 793d
00000090: c7da ac3c 48c0 21be 8bba 0dbd dd1b 6c3d
000000a0: 8927 033d a184 52be 2ef0 e53b 5f9a ddbd
000000b0: 90f1 4a3e 757e b73d 6523 69bd efd9 8a3c
000000c0: e7d9 4f3d 7d06 933d 7fed 85bd 4305 88bc
000000d0: 4831 1abe 6569 213e bc11 113e 0889 833e
000000e0: 7a01 d3bd 62f7 c43c 5e9c 4a3d cd35 803d
000000f0: ad0c 28bd 9eb9 b23d 7669 803d 82e2 db3c
00000100: b041 06bd 16f4 3c3e 3ca0 99be 0272 ac3d
00000110: 0760 103e 36dc 523e 8761 db3d 1973 f33d
00000120: 1f3e ab3d e7ba 1c3e 5157 563e 17cf c53c
00000130: 4367 853d 52b9 1ebd a9d9 583d 7271 653e
00000140: fa2c fdbd 9767 c0bd bca9 68bd b59f b33d
00000150: dc8c 3ebe 0270 283e 8e69 ebbb f120 8f3e
00000160: ad8c ea3c 2185 db3d 82dd b93c 2e12 3c3e
00000170: b513 973d 24e2 c23d 5c06 8e3c 9d07 e9bc
00000180: 01e6 ba3d 63f7 013e 8b0c 7a3e 15d4 b6bd
00000190: a4cb ae3d a3e1 913c 2f12 833d 7d58 fe3d
000001a0: daac a63d 325b b83d 155e 103c e720 c33d
000001b0: a33d 7fbd 82fd 233e 53a4 663d 875b 913b
000001c0: a5ff cc3c eaef 383e 9964 af3c 9ad6 063e
000001d0: 0936 db3c 1c57 ee3d ef54 143e d5ee 713d
000001e0: dc93 06bd 9538 a1bc 1f71 17be 2d62 3f3d
000001f0: 4c3d 873d bf8a a43d 8180 cabd 5410 fbbb
00000200: b13c 66bd f8df 27be b492 443d 247d e13d
00000210: 4013 493e 7962 683e 8202 94bd 5552 213e
00000220: 1f4d eabc 9250 c9bb 7ff2 9e3c 6e8c ccbc
00000230: 231d 0abe 716c 6dbe a0ee 0dbe 40b2 39be
00000240: 8124 93be 04ec 3d3e dfbb 5ebd 0f89 953d
00000250: d119 b6be 698f 933e a67a 94bd c9ca 443e
00000260: a026 563d 02f9 0cbe 419a 1dbe bb7f 1c3e
00000270: 8a8a ad3e 29f0 883e 65e5 54be cc24 93bd
00000280: c99e f7bb 68a6 843d e197 843e 69e0 febd
00000290: ad6d f83d 5df2 943d e323 ffbd f87b 2a3e
000002a0: 6484 833d f788 953e eb8c 2bbe 8e84 763e
000002b0: 82c4 37be 5966 3d3e ffc0 e4bd 4f0d 75be
000002c0: 9666 0d3c d39e 6fbe 5bbf 8e3d 7185 a13e
000002d0: e017 223d e0df ddbb 08df b6bd e160 90be
000002e0: f2fa 4c3d f415 63bd 3282 913d d798 1abe
000002f0: 5001 073d 4b02 ca3d 22e4 8a3c ada3 3f3e
00000300: 40d3 213e 5b55 203e 5918 283e 5528 1a3d
00000310: 81fb 27be 4c8a ef3c fb42 7fbd 0f60 453d
00000320: 804a c3be a942 e3bd b35e 9c3e 7520 40be
00000330: 44f2 793e 9456 323e 23c2 ca3d 3e9e 9b3e
00000340: 2905 69bd 7989 aa3d c69e 4dbd 780d f6bc
00000350: e3e9 9c3d 9bb8 763e ab83 b73d 8878 8b3d
00000360: 0bc6 883e 7753 493e d6d4 77be 03c6 9a3a
00000370: b047 d0bd 03a7 52be 4f78 35be e36f 603d
00000380: d2c7 9dbc f845 fcbd 3ed0 1dbd 398c 40be
00000390: 6053 7d3d 6323 283c f981 19be fddc 42bc
000003a0: 5853 7fbd d61b 753e 6aac 43bd 9e4d 8dbe
000003b0: ee6f 2b3e 2634 4bbe 1ccb 7c3b 67e3 9c3d
000003c0: 39e4 d0ba ac44 4abe 2da9 83bd 427a 80be
000003d0: 4233 07be d1a1 fbbd 75e5 da3d a135 7ebe
000003e0: e5c1 eabe 4ba2 b5bd c645 a13e b85f 3cbd
000003f0: 1edf 17bd 7c92 4ebe 940a bf3d b128 883d

network_body._body_endoder.seq_layers.2.bias f4 [128]
-0.07128579 0.18013991 -0.049858857 -0.09617676 0.15172671 0.22955815 -0.033230163 -0.06271688
-0.11783515 0.07871948 0.15135953 -0.069465496 0.19758579 -0.034268264 0.1535301 -0.11121445
0.20798959 0.15812086 0.11582654 -0.05834794 -0.118375 0.2473787 -0.042935394 0.15253612
-0.11784937 -0.028113581 -0.09970976 0.128518 -0.09766811 0.060147706 0.17611557 -0.06263446
0.19490543 0.22123623 -0.014391405 0.25642163 0.14751905 -0.018502288 -0.07101381 0.07645469
0.12354408 -0.052632753 0.13057116 -0.051810868 0.24699447 0.18997143 0.025816387 -0.08293065
0.03200557 0.00066650874 0.26219603 0.1783413 0.21568002 -0.07718858 -0.035768047 0.19622439
-0.025124053 0.21390451 0.07902815 -0.078836344 0.19983742 0.17168494 0.22116677 0.06322312
-0.011090391 0.13783285 0.11083857 0.20714054 -0.077248186 -0.07809242 -0.07586645 0.16667446
-0.00036508893 -0.03533094 0.2072512 0.22977677 -0.05698495 0.17343055 -0.08788264 0.16841774
-0.082292765 0.033913765 0.03961994 0.14465967 0.15595543 0.15291512 0.1492923 -0.021227993
0.15134051 -0.08780357 0.1608539 0.13713501 0.12205338 -0.096107654 -0.071696825 -0.16258734
-0.029106732 -0.08101759 -0.03524933 0.15393446 -0.015615425 0.1254328 -0.080903135 0.17043333
-0.049848665 0.0010776473 -0.008822993 -0.08082168 -0.052257463 0.103189625 0.18585311 0.16696706
0.22974332 0.024482075 -0.05408042 -0.0048682382 -0.06905686 -0.047227725 -0.07033415 -0.12629268
-0.049049623 -0.06596518 0.17480206 -0.09940629 0.014755562 -0.08851299 0.17199397 -0.042161047
00000000: 49fe 91bd 9976 383e cd38 4cbd 52f8 c4bd
00000010: 3f5e 1b3e 4b11 6b3e 5a1c 08bd b571 80bd
00000020: 8e53 f1bd ae37 a13d fefd 1a3e ed43 8ebd
00000030: ee53 4a3e e15c 0cbd ff36 1d3e 67c4 e3bd
00000040: 39fb 543e 6fea 213e 7736 ed3d 40fe 6ebd
00000050: 986e f2bd d850 7d3e 06dd 2fbd 6e32 1c3e
00000060: 035b f1bd 744e e6bc a134 ccbd 399a 033e
00000070: 3806 c8bd 715d 763d a457 343e 7f46 80bd
00000080: 4a95 473e c08b 623e edc9 6bbc b249 833e
00000090: 3c0f 173e 1c92 97bc b06f 91bd 4794 9c3d
000000a0: ae04 fd3d 7195 57bd 72b4 053e a237 54bd
000000b0: 1eec 7c3e df87 423e e37c d33c 8bd7 a9bd
000000c0: 4618 033d a5b8 2e3a 8f3e 863e 1a9f 363e
000000d0: 39db 5c3e 0c15 9ebd 8481 12bd 0cef 483e
000000e0: f5d0 cdbc c909 5b3e 83d9 a13d f374 a1bd
000000f0: 2ea2 4c3e 2dce 2f3e 8b79 623e 207b 813d
00000100: 79b4 35bc 0e24 0d3e 55ff e23d a61c 543e
00000110: 4c34 9ebd ebee 9fbd df5f 9bbd b6ac 2a3e
00000120: 6869 bfb9 2db7 10bd a939 543e 9a4a 6b3e
00000130: 0d69 69bd c797 313e d0fb b3bd b375 2c3e
00000140: 1c89 a8bd 29e9 0a3d 8548 223d aa21 143e
00000150: c8b2 1f3e c895 1c3e 15e0 183e 54e6 adbc
00000160: 02f9 1a3e 5cd2 b3bd e2b6 243e 1f6d 0c3e
00000170: 1ff7 f93d 17d4 c4bd c9d5 92bd 4c7d 26be
00000180: 3e71 eebc 8dec a5bd 9a61 10bd ffa0 1d3e
00000190: d7d7 7fbc 7571 003e 8bb0 a5bd 1386 2e3e
000001a0: 1d2e 4cbd d83f 8d3a 518e 10bc d685 a5bd
000001b0: ec0b 56bd 1555 d33d 4750 3e3e 6af9 2a3e
000001c0: d541 6b3e a28e c83c 6e83 5dbd be85 9fbb
000001d0: af6d 8dbd dc71 41bd 5a0b 90bd de52 01be
000001e0: 42e8 48bd c118 87bd 50ff 323e 8695 cbbd
000001f0: 50c1 713c 4c46 b5bd 301f 303e 10b1 2cbd

action_model._discrete_distribution.branches.0.weight f4 [7, 128]
-0.054228086 0.19942881 0.046306778 -0.1064905 0.15723825 0.17909467 0.033885695 -0.018626928
-0.06285616 0.13944952 0.17106687 0.05502168 0.2068402 0.030827267 0.16556317 -0.07205626
0.15455118 0.14589377 -0.028943013 -0.049666736 -0.060586307 0.19429028 -0.10407688 0.07652819
-0.07452189 -0.053914458 -0.07640248 0.13875256 -0.08729436 0.082404934 0.12919016 -0.08888943
0.2062856 0.19930695 -0.045356534 0.20499022 0.17683576 0.08020339 -0.07702299 0.15629773
0.16390522 0.05775832 0.14965592 -0.109472744 0.20189632 0.19811392 0.06235022 -0.045651622
-0.06874376 0.08249403 0.18991466 0.07284989 0.16363655 -0.06219404 0.07004781 0.2122204
0.06799136 0.21006663 0.16651404 -0.096306875 0.22166806 0.17765655 0.20687407 0.1031608
-0.024865383 0.051409803 0.10242248 0.18544953 -0.10742403 -0.06215147 -0.06379731 0.17755224
0.083258815 -0.040881995 0.22245127 0.22387691 -0.050373547 0.19635384 -0.100395255 0.16393961
-0.06432383 -0.011116318 0.11959655 0.080989175 0.15499215 0.17096597 -0.037715968 0.053421106
-0.03953026 -0.05347584 0.17410459 -0.020735292 -0.049706183 -0.05296574 -0.02911489 -0.12321762
0.048514266 -0.10723329 0.102872536 -0.0131375985 0.043194175 0.15031831 -0.0913301 0.048511095
-0.033524077 -0.057740144 0.09709828 -0.033288777 0.065061636 0.1392077 0.20398813 0.1783966
0.20187931 -0.0794114 -0.050224025 0.024261612 -0.04880903 0.055675633 -0.10972956 -0.07189585
0.0757303 -0.080472216 0.1861254 -0.0539446 0.059488527 -0.06418725 0.17809013 -0.11251351
-0.13392189 -0.07198164 -0.14357369 -0.11398332 -0.03675521 -0.052840956 -0.093453765 -0.08627493
-0.06798268 -0.05147462 -0.06545546 -0.0408542 -0.066936836 -0.1277434 -0.053321555 -0.015937503
0.07731325 0.11214392 0.11528171 -0.08355636 -0.08150292 -0.061891638 0.13839878 0.0931844
-0.11442784 -0.015202301 -0.08735697 -0.05822599 -0.06429293 -0.09767959 0.10553129 0.07474935
-0.16138616 -0.0810005 -0.00017903383 -0.020040398 -0.06709292 -0.14868449 -0.07096537 -0.11120065
-0.08605812 -0.16344711 0.19105762 -0.04733638 -0.05363277 -0.11588601 -0.058117487 -0.10274741
0.1151038 -0.15818392 0.011479141 0.17366524 -0.04678283 -0.12615992 -0.040959917 -0.03720171
-0.09298407 -0.058933794 0.10863579 -0.11994006 -0.11380102 -0.041509192 -0.06542233 -0.03686976
0.002242745 0.09766381 0.028060447 0.108361356 -0.09295247 -0.1615877 -0.10511726 -0.07415358
-0.16094607 -0.07756029 -0.17467201 -0.052422747 -0.060278706 -0.09412823 -0.1345162 0.022304403
-0.09972808 0.031812865 0.0006443704 0.07333296 -0.039344694 -0.06280425 0.12961441 -0.122011796
0.1309108 -0.111833714 -0.061225682 0.12499635 0.081483185 -0.092741415 -0.07305397 0.006502646
-0.1163542 -0.23269095 -0.07604935 0.113547966 -0.13618 -0.054969452 0.07574769 0.12184416
-0.0726832 0.039528612 -0.064582966 -0.075488105 -0.07079561 0.19311078 -0.07716652 -0.07951103
-0.0672566 0.08173598 0.017833747 -0.073511794 -0.15183394 -0.059227135 0.09530733 -0.11835058
-0.107455574 -0.07626033 -0.055415288 -0.08852306 -0.08019938 -0.067199074 0.12763028 0.11413923
00000000: 451e 5ebd 1137 4c3e 2dac 3d3d b117 dabd
00000010: 1003 213e 9864 373e bacb 0a3d 8097 98bc
00000020: bbba 80bd dbcb 0e3e 272c 2f3e 6a5e 613d
00000030: ebcd 533e 7789 fc3c 6489 293e 3c92 93bd
00000040: aa42 1e3e 2d65 153e e619 edbc 596f 4bbd
00000050: 5929 78bd 08f4 463e 4226 d5bd d0ba 9c3d
00000060: ef9e 98bd 68d5 5cbd e778 9cbd 2715 0e3e
00000070: 63c7 b2bd ebc3 a83d 6d4a 043e a90b b6bd
00000080: 883c 533e 1f17 4c3e c6c7 39bd f5e8 513e
00000090: 6f14 353e ad41 a43d 3bbe 9dbd 830c 203e
000000a0: c5d6 273e fd93 6c3d 673f 193e 3f33 e0bd
000000b0: e9bd 4e3e 60de 4a3e f262 7f3d 32fd 3abd
000000c0: 87c9 8cbd a1f2 a83d fd78 423e 5332 953d
000000d0: 5790 273e 2dbf 7ebd 3a75 8f3d 4e50 593e
000000e0: 0e3f 8b3d b51b 573e a882 2a3e 8a3c c5bd
000000f0: f4fc 623e 99eb 353e ccd6 533e f845 d33d
00000100: 7db2 cbbc 1693 523d e1c2 d13d 7be6 3d3e
00000110: 2101 dcbd 8a92 7ebd 2aa8 82bd 41d0 353e
00000120: 9983 aa3d e173 27bd 44ca 633e fd3f 653e
00000130: 7e54 4ebd fb10 493e 079c cdbd c9df 273e
00000140: 36bc 83bd 3821 36bc 09ef f43d a7dd a53d
00000150: 43b6 1e3e b411 2f3e 0f7c 1abd 17d0 5a3d
00000160: 7bea 21bd 7b09 5bbd 7948 323e 0fdd a9bc
00000170: b698 4bbd 9bf2 58bd 5a82 eebc 8559 fcbd
00000180: e5b6 463d 219d dbbd d6ae d23d 153f 57bc
00000190: 60ec 303d 0bed 193e 470b bbbd 92b3 463d
000001a0: 8b50 09bd ee80 6cbd 77db c63d d059 08bd
000001b0: 093f 853d 778c 0e3e 44e2 503e 99ad 363e
000001c0: 73b9 4e3e 72a2 a2bd b5b7 4dbd 4ac0 c63c
000001d0: faeb 47bd 220c 643d e4b9 e0bd 223e 93bd
000001e0: 7d18 9b3d 9ece a4bd a897 3e3e 03f5 5cbd
000001f0: 3eaa 733d 9b74 83bd 425d 363e 7c6d e6bd
00000200: d222 09be 1c6b 93bd fb04 13be 1670 e9bd
00000210: a28c 16bd c26f 58bd b064 bfbd e9b0 b0bd
00000220: 813a 8bbd 0dd7 52bd 830d 86bd bc56 27bd
00000230: 2e16 89bd 2acf 02be b467 5abd 5e8f 82bc
00000240: 6956 9e3d b6ab e53d d118 ec3d 991f abbd
00000250: 01eb a6bd 1682 7dbd 69b8 0d3e 76d7 be3d
00000260: 2559 eabd 1213 79bc 36e8 b2bd 607e 6ebd
00000270: 03ac 83bd 3d0c c8bd ca20 d83d 3016 993d
00000280: 6a42 25be 97e3 a5bd 07bb 3bb9 c32b a4bc
00000290: 0368 89bd bf40 18be 4b56 91bd 2bbd e3bd
000002a0: 3d3f b0bd ae5e 27be 9ca4 433e cbe3 41bd
000002b0: 09ae 5bbd a555 edbd 9a0c 6ebd 3c6d d2bd
000002c0: 8bbb eb3d f7fa 21be 0213 3c3c 4dd5 313e
000002d0: 5a9f 3fbd 1130 01be 96c5 27bd d260 18bd
000002e0: 6f6e bebd 9064 71bd 717c de3d 22a3 f5bd
000002f0: 8210 e9bd 8b05 2abd 24fc 85bd bf04 17bd
00000300: 04fb 123b f703 c83d 06df e53c 8fec dd3d
00000310: dd5d bebd 3f77 25be b847 d7bd d5dd 97bd
00000320: 0ccf 24be eed7 9ebd 38dd 32be 3cb9 56bd
00000330: cee6 76bd 4dc6 c0bd 9dbe 09be b9b7 b63c
00000340: 3c3e ccbd 354e 023d f7ea 283a 972f 963d
00000350: e727 21bd 849f 80bd a4b9 043e 52e1 f9bd
00000360: 7b0d 063e 1309 e5bd c8c7 7abd 16fe ff3d
00000370: a8e0 a63d 36ef bdbd 529d 95bd 2614 d53b
00000380: 1c4b eebd 8946 6ebe c3bf 9bbd d68b e83d
00000390: c572 0bbe a627 61bd 9b21 9b3d 6e89 f93d
000003a0: eeda 94bd c1e8 213d 1344 84bd 8299 9abd
000003b0: 4afd 90bd d5be 453e 7b09 9ebd aed6 a2bd
000003c0: d4bd 89bd 3265 a73d 1418 923c 5a8d 96bd
000003d0: 5b7a 1bbe 2798 72bd 7d30 c33d ca61 f2bd
000003e0: ab11 dcbd 602e 9cbd 24fb 62bd 944b b5bd
000003f0: 933f a4bd ab9f 89bd 83b1 023e d4c1 e93d

action_model._discrete_distribution.branches.0.bias f4 [7]
0.18116678 0.025838723 0.031255275 0.0238336 -0.031466402 -0.05088998 -0.11061038
00000000: c983 393e bbab d33c 8805 003d af3e c33c
00000010: eae2 00bd 0372 50bd b287 e2bd
