Assets/ML Models/My Behavior.onnx (onnx, 75619 bytes, 6 tensors)

network_body._body_endoder.seq_layers.0.weight f4 [128, 1]
0.75669026 -0.13516168 0.61312056 -1.1207366 -0.19029184 -1.6917957 -0.42306146 0.20823146
-3.1206448 -1.1183006 -0.18524711 2.1298065 0.7210193 0.09429372 -0.13969927 -0.22545645
-0.104427464 -1.2808546 0.05130045 0.5848302 1.7860316 -0.26230043 -0.9522475 -0.20637456
0.034785695 -0.75715005 -0.29967335 0.24480124 0.24047911 1.0545124 -0.75418055 1.2249764
1.0203621 -0.23202783 0.16796122 0.3018473 -1.3177706 -2.9120142 1.0600038 0.6621313
-1.5192748 0.89849776 -1.9082166 -0.7176046 0.4335693 -0.22661921 -2.028633 -0.22440389
0.3266622 0.9362811 -1.5486367 -0.03840232 0.17468785 -1.2189293 1.6767725 -1.2298603
-0.18067826 0.40992182 0.46139055 -0.019591818 -1.0281512 1.1957345 1.1471133 1.6684697
0.65671015 0.66785973 0.2897623 -0.36838076 -1.1839736 -0.5477734 0.6641695 -0.8468791
-0.59446883 0.25662342 1.6384845 1.6954381 -0.68227524 -0.81286794 0.07898246 0.9307952
-0.38708058 -0.36764598 2.1095188 0.52926975 -0.29419643 -0.15608399 -0.72402513 -1.1932424
-1.1701267 0.18490204 1.4864087 0.5108969 -0.3510061 -0.22998816 0.0969105 -0.7447989
-0.27177387 -0.15475935 0.8120306 -0.9898623 0.44188392 -0.82089967 0.13512975 2.5336134
0.37327382 0.2642322 -1.3148457 0.33545467 -0.03616709 -0.8388568 -0.26688045 1.178951
-0.7461216 0.26109585 -1.4396168 -0.085619085 1.0754226 0.033471927 1.910922 -0.56989914
1.2500048 -0.15480351 0.07605432 0.8998421 0.36173043 0.46616164 0.07890547 1.0092808
00000000: 74b6 413f d367 0abe 78f5 1c3f 4c74 8fbf
00000010: dddb 42be c38c d8bf 839b d8be a13a 553e
00000020: a5b8 47c0 7924 8fbf 6bb1 3dbe c04e 0840
00000030: b994 383f 111d c13d 530d 0fbe 0ede 66be
00000040: 11de d5bd 0bf3 a3bf 6c20 523d 6fb7 153f
00000050: af9c e43f 3e4c 86be 7ec6 73bf da53 53be
00000060: 727b 0e3d 96d4 41bf c96e 99be 2dad 7a3e
00000070: 2840 763e 43fa 863f fa11 41bf 07cc 9c3f
00000080: 3a9b 823f b498 6dbe 07fe 2b3e bb8b 9a3e
00000090: b5ac a8bf 715e 3ac0 34ae 873f 7081 293f
000000a0: 9977 c2bf f303 663f 7140 f4bf efb4 37bf
000000b0: ccfc dd3e de0e 68be 20d5 01c0 22ca 65be
000000c0: 4540 a73e 1eb0 6f3f ba39 c6bf c04b 1dbd
000000d0: 5fe1 323e e005 9cbf 7ba0 d63f 106c 9dbf
000000e0: b903 39be 46e1 d13e 623b ec3e 057f a0bc
000000f0: 759a 83bf d40d 993f 9cd4 923f 6a90 d53f
00000100: 281e 283f dbf8 2a3f b95b 943e 679c bcbe
00000110: 728c 97bf e13a 0cbf 0307 2a3f 12cd 58bf
00000120: 1c2f 18bf 2564 833e dcb9 d13f 1e04 d93f
00000130: 97a9 2ebf 1d18 50bf 8ec1 a13d 9848 6e3f
00000140: 6d2f c6be 183c bcbe 5b02 0740 397e 073f
00000150: eaa0 96be 7bd4 1fbe b659 39bf 2bbc 98bf
00000160: b6c6 95bf f656 3d3e a442 be3f 24ca 023f
00000170: 12b7 b3be 0482 6bbe 0379 c63d 24ab 3ebf
00000180: f225 8bbe 3c79 1ebe 3de1 4f3f 9e67 7dbf
00000190: 9c3e e23e 7b26 52bf 745f 0a3e b926 2240
000001a0: bf1d bf3e 7149 873e dd4c a8bf b7c0 ab3e
000001b0: f123 14bd 52bf 56bf 8ea4 88be dee7 963f
000001c0: d301 3fbf 5bae 853e 5d45 b8bf 0f59 afbd
000001d0: 73a7 893f dc19 093d 1899 f43f e9e4 11bf
000001e0: 2800 a03f d084 1ebe 5ec2 9b3d 0d5c 663f
000001f0: bb34 b93e bdac ee3e 3199 a13d 1d30 813f

network_body._body_endoder.seq_layers.0.bias f4 [128]
-0.009330751 -0.0037845597 -0.0014554017 0.0040324945 -0.017206322 0.017398247 -0.0029729581 -0.0048244675
-0.008567147 -0.017092563 0.0065798936 -0.0053779427 -0.0012525435 0.00022740665 -0.011586458 -0.019116197
0.000102275226 -0.005097046 -0.002059928 -0.004168548 -0.0041994923 0.008788798 0.0033576654 -0.015583401
0.0014038729 -0.0010149118 -0.019810207 0.0017584686 -0.005330632 -0.008850972 -0.010049788 -0.0019636154
-0.0015578329 -0.013908877 0.0040697036 -0.0018951228 0.021351548 -0.012792388 0.0040746955 -0.0061668726
-0.009870573 0.0043680277 -0.016116807 -0.007984585 0.008015244 -0.0015727221 -0.007879854 0.011230554
0.006727663 -0.009139928 0.009277271 -0.0060012955 -0.0032240236 0.012548787 0.0010236847 -0.0017165056
-0.010791117 0.0015403305 -0.0014370339 -0.007935256 -0.016599972 0.0033723104 -0.0060748314 -0.0072407774
-0.0027687256 -0.007898094 0.0017303429 0.0058686454 -0.014265582 0.0054046283 -0.0016240636 0.007950354
-0.0119334655 -0.001213146 -0.00967049 -0.013583779 -0.007707961 0.02190052 0.005349868 0.004199555
0.0036609978 -0.013193725 0.0036693776 -0.0021826036 -0.011333028 0.014674518 -0.0046811206 -0.0005165359
0.011035992 -0.0014169157 0.0030259243 0.006100776 -0.010498169 0.00070422393 -0.0067398762 -0.010399942
0.0065693846 0.019147675 -0.0048208395 0.016366277 -0.004506886 0.010654152 0.0007795646 -0.0037097214
-0.006502401 0.001483231 0.009312267 0.0018012775 0.0024257188 -0.0027989177 -0.0056535024 -0.0004524292
0.015086768 -0.004487409 -0.0039847456 -0.002680493 0.0005872663 0.007173469 -0.009058331 0.013417828
0.0018236967 -0.0019064469 -0.0010120342 -0.0037544316 -0.0020263796 -0.005409938 0.004536824 -0.010027906
00000000: 02e0 18bc 6006 78bb 2dc3 beba 0423 843b
00000010: 46f4 8cbc c586 8e3c f6d5 42bb 9116 9ebb
00000020: 385d 0cbc b405 8cbc 269c d73b 7439 b0bb
00000030: 632c a4ba 0274 6e39 21d5 3dbc 9299 9cbc
00000040: 987c d638 1f05 a7bb dbff 06bb 5198 88bb
00000050: e59b 89bb e4fe 0f3c 470c 5c3b 8551 7fbc
00000060: 2802 b83a ca06 85ba 0449 a2bc 6a7c e63a
00000070: 95ac aebb ab03 11bc dea7 24bc 00b0 00bb
00000080: 3330 ccba 0fe2 63bc 265b 853b c565 f8ba
00000090: 71e9 ae3c 2a97 51bc 0685 853b 7a13 cabb
000000a0: 2fb8 21bc ac21 8f3b 6507 84bc c7d1 02bc
000000b0: 5f52 033c cc23 ceba 811a 01bc 5c00 383c
000000c0: ba73 dc3b a3bf 15bc b2ff 173c 84a6 c4bb
000000d0: 244a 53bb 6d99 4d3c 292d 863a 5ffc e0ba
000000e0: 3acd 30bc eae4 c93a db5a bcba e002 02bc
000000f0: aafc 87bc fb01 5d3b 610f c7bb 0b44 edbb
00000100: 8273 35bb 0267 01bc accc e23a c44d c03b
00000110: 30ba 69bc 4f19 b13b 88de d4ba 3442 023c
00000120: 9584 43bc 6d02 9fba fa70 1ebc 808e 5ebc
00000130: 1093 fcbb b868 b33c f24d af3b 6c9c 893b
00000140: 5aed 6f3b 7e2a 58bc f179 703b 030a 0fbb
00000150: 2aae 39bc 646d 703c 1664 99bb 2368 07ba
00000160: 4ed0 343c cdb7 b9ba 964e 463b 05e9 c73b
00000170: 8300 2cbc ab9b 383a 2eda dcbb 8564 2abc
00000180: fe43 d73b 96db 9c3c 22f8 9dbb 9212 863c
00000190: 80ae 93bb c18e 2e3c b25b 4c3a cc1e 73bb
000001a0: 1812 d5bb f968 c23a 7b92 183c d818 ec3a
000001b0: cff8 1e3b 0c6e 37bb 0441 b9bb 0534 edb9
000001c0: 7e2e 773c 1d0b 93bb 7892 82bb 36ab 2fbb
000001d0: c6f2 193a 6b0f eb3b 6569 14bc 73d6 5b3c
000001e0: 1b09 ef3a bee1 f9ba 3ca6 84ba e90c 76bb
000001f0: 02cd 04bb d945 b1bb a3a9 943b 164c 24bc

network_body._body_endoder.seq_layers.2.weight f4 [128, 128]
-0.006760332 -0.0040243496 -0.09848146 -0.022602882 0.14512606 -0.015620026 -0.040196817 0.17242377
0.07536421 -0.0868755 -0.07861649 0.06837112 -0.109963425 -0.035482496 0.05509451 0.03159345
0.12685095 0.1191413 0.13403556 -0.13205598 0.019452337 0.011367677 -0.11600081 -0.053083207
-0.02881934 0.019844748 0.046409354 0.03956548 0.024676904 0.1427153 0.13675302 0.015067659
-0.07858589 0.14784025 0.18205376 0.049189765 -0.15771721 -0.0953832 -0.062295154 -0.09314387
0.05454451 -0.007449051 0.12941505 0.010620932 -0.03559765 0.025940865 -0.14585963 -0.1482635
0.035620973 -0.020950383 -0.017846337 0.10037472 0.01923121 0.098178625 -0.0474073 0.05192105
-0.0019113701 0.013329402 -0.079665 -0.018340498 0.011802258 -0.17981367 -0.010676193 0.14956596
0.05567253 0.013018653 0.033013076 0.181476 0.037265714 0.13779695 0.08513665 0.11977107
-0.20962784 -0.13413337 -0.03848532 -0.12174859 -0.10817871 0.0052811876 0.019612372 0.08840427
-0.13996185 0.07810208 -0.04164953 0.07064362 -0.0016997968 0.11559797 0.022741811 -0.00634622
-0.14561488 -0.0757681 -0.03503699 0.056921892 0.104745574 0.15378895 -0.16107957 -0.16901065
-0.04851285 0.10685419 -0.009856079 0.16044831 -0.005656367 -0.0042643794 -0.074907616 -0.0830726
-0.014029785 -0.09753793 -0.15465051 -0.09803299 -0.24135956 0.05614623 -0.034655247 0.0080898665
0.008976858 0.13500957 0.0523348 -0.12709187 -0.052572876 -0.062006187 -0.01632635 -0.0973001
0.0038568967 0.049613293 0.14676751 -0.0019631127 -0.057996098 -0.12742324 -0.06451568 0.090275206
0.015203059 0.031187871 -0.07226306 0.092813805 -0.03910254 -0.061742924 -0.06925482 -0.028179469
-0.09172354 -0.12178681 0.08477112 0.013007049 0.00683944 -0.025949873 0.08187579 0.06741463
-0.05857706 0.068488784 0.09509232 -0.056863178 0.17668825 0.1260459 -0.035270847 0.06570726
0.11035687 0.17659058 -0.060210843 0.07904881 0.09560144 -0.102614425 -0.08535073 -0.06343347
0.03912135 0.031965733 -0.060983207 0.040697042 0.046615526 0.06053242 0.021562397 0.05077111
-0.08105885 0.07652088 0.008415877 0.13181272 -0.12598139 0.020194907 -0.012665171 0.027407134
-0.012651863 -0.020820402 0.15489551 -0.017173948 -0.09321106 -0.086270414 0.035233676 -0.12624674
0.09367509 -0.022952665 -0.13092615 -0.07120444 -0.09014562 -0.067199714 -0.071180955 0.030069191
0.061916087 0.06296101 0.013644126 0.11499104 -0.07945512 0.011136222 -0.004399134 0.070529245
0.11179082 -0.032749176 0.0024936453 -0.14319463 -0.21642956 -0.051142566 -0.024959754 -0.0026187412
0.061099976 -0.019875485 -0.09415736 -0.008380626 0.04167856 -0.12062732 0.009219628 0.15828928
0.07682619 -0.066741355 -0.004110567 -0.058318593 -0.05679544 0.18950889 -0.11562423 0.0063192095
0.206942 -0.072659224 -0.142689 0.05124427 0.048533242 -0.037652876 0.0032268276 -0.07314478
0.028149178 -0.046004754 0.0030211622 0.04600704 -0.021496834 0.01435778 0.06909394 0.06972992
-0.19594915 0.039709322 0.04563769 -0.17350799 0.050514992 -0.060878143 -0.05063218 -0.02687326
-0.08464748 0.17423178 -0.16214107 -0.07424468 -0.13385735 -0.14479008 -0.007897023 0.037663322
00000000: c685 ddbb b1de 83bb a6b0 c9bd ae29 b9bc
00000010: ed9b 143e 23eb 7fbc 6ba5 24bd db8f 303e
00000020: 8d58 9a3d c8eb b1bd af01 a1bd 2806 8c3d
00000030: 8134 e1bd 1856 11bd c8aa 613d 2268 013d
00000040: 37e5 013e 5b00 f43d 9e40 093e af39 07be
00000050: 825a 9f3c 7e3f 3a3c d591 edbd c76d 59bd
00000060: 8916 ecbc 7491 a23c bc17 3e3d 6a0f 223d
00000070: 3827 ca3c f623 123e fc08 0c3e 58de 763c
00000080: a4f1 a0bd 6f63 173e 4d6c 3a3e 357b 493d
00000090: 9f80 21be 4458 c3bd 3429 7fbd 37c2 bebd
000000a0: 106a 5f3d 2b17 f4bb 6185 043e 6b03 2e3c
000000b0: d7ce 11bd f081 d43c 3a5c 15be 63d2 17be
000000c0: 4ce7 113d 23a0 abbc 7b32 92bc 4391 cd3d
000000d0: c58a 9d3c e011 c93d 282e 42bd 2bab 543d
000000e0: f086 faba 9063 5a3c 6727 a3bd d03e 96bc
000000f0: 425e 413c 1321 38be 33eb 2ebc d227 193e
00000100: e108 643d 304c 553c b838 073d d8d4 393e
00000110: efa3 183d a51a 0d3e 205c ae3d 894a f53d
00000120: aea8 56be 425a 09be c8a2 1dbd 5357 f9bd
00000130: cd8c ddbd d00d ad3b 20aa a03c 4c0d b53d
00000140: 2952 0fbe fcf3 9f3d b398 2abd 9aad 903d
00000150: b7cb deba a1be ec3d 094d ba3c f4f3 cfbb
00000160: 111c 15be 4e2c 9bbd f282 0fbd ee26 693d
00000170: d984 d63d da7a 1d3e 0bf2 24be 2111 2dbe
00000180: 69b5 46bd 5fd6 da3d 647b 21bc 904c 243e
00000190: 0c59 b9bb 35bc 8bbb 2a69 99bd f821 aabd
000001a0: 2fdd 65bc f7c1 c7bd b45c 1ebe 85c5 c8bd
000001b0: f626 77be 97f9 653d a9f2 0dbd 5c8b 043c
000001c0: ac13 133c f33f 0a3e 045d 563d 5f24 02be
000001d0: a856 57bd 33fa 7dbd d6be 85bc 4645 c7bd
000001e0: fdc3 7c3b 4f37 4b3d 394a 163e 91a7 00bb
000001f0: 518d 6dbd 3d7b 02be cc20 84bd 35e2 b83d
00000200: 4016 793c b57d ff3c a8fe 93bd 2a15 be3d
00000210: fc29 20bd 26e6 7cbd 79d5 8dbd a1d8 e6bc
00000220: 8dd9 bbbd 5d6b f9bd 7b9c ad3d 851b 553c
00000230: 621d e03b d494 d4bc 7fae a73d ae10 8a3d
00000240: 80ee 6fbd d943 8c3d c3bf c23d 5de9 68bd
00000250: c4ed 343e 2d12 013e 2a78 10bd 8791 863d
00000260: c802 e23d 29d4 343e a59f 76bd 58e4 a13d
00000270: b0ca c33d 8327 d2bd 5dcc aebd 68e9 81bd
00000280: b53d 203d 80ee 023d 87c9 79bd f1b1 263d
00000290: ecef 3e3d d8f0 773d a0a3 b03c 5ef5 4f3d
000002a0: 2f02 a6bd fbb6 9c3d bfe2 093c eaf9 063e
000002b0: 4401 01be ca6f a53c 9481 4fbc ed84 e03c
000002c0: c249 4fbc 8c8f aabc ee9c 1e3e 61b0 8cbc
000002d0: 71e5 bebd 8bae b0bd 3051 103d d346 01be
000002e0: bad8 bf3d 3a07 bcbc 8111 06be a2d3 91bd
000002f0: 449e b8bd 01a0 89bd 52c7 91bd aa53 f63c
00000300: b99b 7d3d b4f1 803d 9d8b 5f3c 6c80 eb3d
00000310: 5eb9 a2bd b374 363c 9c26 90bb a371 903d
00000320: 96f2 e43d 0024 06bd 6d6c 233b 9da1 12be
00000330: b69f 5dbe de7a 51bd 6678 ccbc 309f 2bbb
00000340: f843 7a3d ead1 a2bc 93d5 c0bd e54e 09bc
00000350: 23b7 2a3d 750b f7bd ec0d 173c 9616 223e
00000360: 0d57 9d3d b1af 88bd efb1 86bb 7adf 6ebd
00000370: 56a2 68bd 9e0e 423e 65cc ecbd 5f11 cf3b
00000380: 9be8 533e 5cce 94bd 111d 12be 83e5 513d
00000390: cbca 463d e739 1abd 2f79 533b eecc 95bd
000003a0: 1b99 e63c 7b6f 3cbd b1fe 453b e171 3c3d
000003b0: 211a b0bc e53c 6b3c 2081 8d3d 8fce 8e3d
000003c0: e5a6 48be 3ea6 223d 96ee 3a3d 14ac 31be
000003d0: cfe8 4e3d 5c5b 79bd b063 4fbd 5025 dcbc
000003e0: a85b adbd d169 323e 4f08 26be 980d 98bd
000003f0: e711 09be da43 14be 8462 01bc db44 1a3d

network_body._body_endoder.seq_layers.2.bias f4 [128]
-0.0011419145 0.013659087 -0.017744653 0.0023823027 0.018553246 -0.0048692464 0.009456135 0.008312464
0.0007584552 0.004587272 -0.0051790806 0.01084587 0.014263969 0.0014292492 -0.006980377 -0.0007975282
-0.0009652653 -0.008818674 -0.009750191 -0.007284038 0.0010663932 -0.014853412 -0.007939978 0.0055418694
0.0045327935 -0.010981233 0.016238451 -0.0037330429 0.009782789 -0.0027452107 -0.00545536 -0.0048252447
0.0021617354 0.014827325 0.007753454 0.02096748 0.013764693 -0.00059527595 -0.0024709955 -0.0027939691
-0.006678719 -0.0043556527 0.0055295727 -0.0032286067 -0.004803886 0.00037135987 0.0014889078 -0.0019937768
-0.014646596 -0.0031510442 0.0006652846 -0.008991941 -0.0041594217 -0.00784474 -0.01447625 -0.011268223
-0.0021539212 -0.003671757 -0.0044735777 -0.0042575747 -0.0020810936 0.0048927283 -0.0048795915 -0.0022408566
-0.0021708533 -0.0007671676 -0.0007484857 -0.003686521 -0.0075263884 0.0009232671 -0.007934651 0.013605956
-0.000887497 -0.0026926922 -0.0036086647 -0.0022358205 0.0006282307 0.008648525 0.0029460017 -0.0018858999
0.015276695 -0.008044353 0.004593614 -0.007529261 0.006579746 -7.326489e-05 0.0025477265 0.0048766914
-0.00047840393 -0.00044570505 0.00564362 -0.00052104256 0.0118484665 -0.008246913 -0.0065977606 0.006154885
-0.008713392 0.0010116779 0.012691168 0.002956106 0.01057825 -0.010248714 0.004591315 -0.0045794914
0.010833985 0.0018489168 0.01483672 -0.004151293 0.0012134121 -0.001731932 -0.0070100194 -0.004441847
0.012624946 0.010765812 -0.014476942 0.0007628187 -0.014317523 -0.0033237059 -0.0084075555 -0.01076711
0.00071189634 -0.008659307 -0.0058948975 0.012302063 -0.003887303 -0.006811437 -0.01641006 0.013579499
00000000: 4bac 95ba 5dca 5f3c 3c5d 91bc 6820 1c3b
00000010: fafc 973c 338e 9fbb e8ed 1a3c 0031 083c
00000020: 11d3 463a d450 963b 47b5 a9bb e0b2 313c
00000030: 6cb3 693c a555 bb3a a5bb e4bb 3611 51ba
00000040: dc09 7dba 337c 10bc 44bf 1fbc f0ae eebb
00000050: 38c6 8b3a ba5b 73bc ae16 02bc 9298 b53b
00000060: d487 943b a1ea 33bc 8006 853c 11a6 74bb
00000070: fe47 203c fee8 33bb e0c2 b2bb 161d 9ebb
00000080: e7ab 0d3b 4fee 723c b010 fe3b fec3 ab3c
00000090: 4f85 613c 4b0c 1cba 6df0 21bb 061b 37bb
000000a0: 28d9 dabb ddb9 8ebb 6b31 b53b 0897 53bb
000000b0: eb69 9dbb 14b3 c239 7527 c33a 06aa 02bb
000000c0: 47f8 6fbc c081 4ebb 7e66 2e3a ef52 13bc
000000d0: c24b 88bb 3987 00bc cb2d 6dbc 5a9e 38bc
000000e0: cd28 0dbb dca1 70bb 1797 92bb 2083 8bbb
000000f0: f562 08bb 2e53 a03b fbe4 9fbb 56db 12bb
00000100: e044 0ebb bf1b 49ba 0636 44ba 8f99 71bb
00000110: ec9f f6bb 6807 723a 5700 02bc 84eb 5e3c
00000120: eaa6 68ba e177 30bb 597f 6cbb d886 12bb
00000130: d9af 243a 8bb2 0d3c b511 413b 4d30 f7ba
00000140: 1a4b 7a3c 76cc 03bc 0786 963b 05b8 f6bb
00000150: e99a d73b caa5 99b8 c2f7 263b a7cc 9f3b
00000160: 4ad2 fab9 85ad e9b9 1eee b83b 9396 08ba
00000170: 1220 423c 0f1e 07bc 0732 d8bb ebae c93b
00000180: 9dc2 0ebc 479a 843a 9eee 4f3c 3bbb 413b
00000190: 6550 2d3c 39ea 27bc be72 963b 8f0f 96bb
000001a0: 0781 313c 5a57 f23a b715 733c 9207 88bb
000001b0: 5b0b 9f3a ff01 e3ba 4eb4 e5bb ea8c 91bb
000001c0: ddd8 4e3c 1763 303c b230 6dbc e5f7 473a
000001d0: 0b94 6abc 88d2 59bb d8bf 09bc 8868 30bc
000001e0: 8e9e 3a3a c4df 0dbc fc29 c1bb 988e 493c
000001f0: 1fc2 7ebb 7a32 dfbb 646e 86bc 8c7c 5e3c

action_model._discrete_distribution.branches.0.weight f4 [7, 128]
0.007676199 0.029624052 -0.0063934405 -0.012989536 -0.0036479016 -0.021615582 0.028049158 -0.00892109
0.006400068 0.014616481 -0.007559851 0.020262148 -0.006049876 0.010722765 0.0139139015 -0.016315449
-0.00017116439 0.012783612 -0.0120684095 -0.0139265545 0.0023740171 0.0075545907 0.004277114 0.008637233
0.02406093 -0.0007808648 0.018182784 0.011075484 -0.0036041897 0.0012373538 -0.015712384 0.0042085834
0.0049301665 0.019904695 0.0072886227 0.0019104817 0.017460672 -0.01787737 0.007573149 -0.0031530121
-0.00074513804 -0.0018023301 -0.008796072 0.0084417695 -0.021914897 0.004347879 0.0008715775 -0.009981051
-0.022527132 -0.017002169 -0.0076287477 0.0049785846 -0.004980384 0.010545451 -0.0032682493 -0.0035235952
0.012527992 0.0013484239 0.005512535 0.0027325824 -0.0014531494 0.018872974 0.00030306494 0.0069415406
0.0022070552 0.008456531 0.0041663186 0.007737192 -0.011868011 0.013909043 -0.007078442 0.0249454
0.01185884 0.008855221 0.0061328565 -0.004734486 -0.018888999 0.0006582113 0.022754433 0.0025793426
-0.006398221 0.00437434 -0.006495935 0.01353759 0.0029581753 -0.002378942 -0.014032524 -0.011415319
0.0033561308 -0.012888991 -0.008137464 -0.0062182727 0.021596584 -0.005151993 0.0004060499 0.017486317
0.0067158877 0.009400498 0.025944008 0.007792213 0.019011635 0.010920343 -0.013994375 -0.005301474
-0.01464302 0.019527154 0.00441974 0.003035505 0.0055864607 -0.012336964 0.009839909 0.004186622
0.022430805 0.0011202579 0.007635744 0.017722636 -0.004533187 0.0035748838 0.0071784942 0.0040496606
0.005895263 -0.0016941706 0.008909767 0.019871335 -0.020666694 0.017175572 -0.0050367396 0.026138289
-0.0022343104 -0.019536136 -0.011476925 0.010944725 0.023824094 -0.0016945843 -0.013474804 0.015762374
0.0067061447 -0.019196093 0.0056050643 0.010227392 0.030579254 0.0064022103 -0.036681175 -0.0017901558
0.0055267736 -0.016703796 -0.00017039299 -0.011281284 0.0065321377 -0.024843507 -0.015361573 0.007568649
-0.034538865 -0.011484621 -0.001659285 -0.008253688 0.026219588 -0.011628817 -0.0046537453 -0.015017957
0.0005308228 0.00097234786 0.0040507666 0.027334351 -0.037783038 0.019619944 -0.004780925 -0.010725048
-0.014700624 -0.0019147729 0.009691651 -0.0065396344 -0.011639245 -0.0035054907 1.42920435e-05 0.008605638
-0.0010500727 0.0013470813 0.009644499 -0.01109215 -0.01266388 -0.010434931 -0.014802631 -0.014275998
-0.009060123 0.004824329 -0.010064212 -0.0063399617 0.0047784233 -0.027443696 -0.0055612284 -0.00045179308
-0.0012333381 0.0024398738 0.0051686727 -0.015459008 -0.009492377 -0.03153573 -0.004248701 -0.015545019
0.0007563405 -0.0038833353 -0.007630765 0.004398521 0.0084312335 0.008268709 -0.0077444953 0.0050065527
0.02144002 -0.0036313937 0.0125049725 -0.022495588 0.022308901 -0.0022724606 0.0027827849 0.0060178298
0.0059488867 0.005860643 0.012774334 -0.0030115752 -0.0071749073 -0.0041620103 -0.001900412 -0.008207403
-0.0065995567 -0.010331678 -7.5776436e-05 0.0059176413 -0.008539176 -0.0144697325 -0.004957356 0.0027888925
0.0016014352 -0.014807348 0.011154248 -0.011915615 0.0066672647 0.002511235 -0.018701043 -0.0053351633
-0.028027788 0.010487849 -0.035876427 0.00025429935 -0.0044139666 -0.008549066 -0.015238919 -0.00841551
0.0005424135 -0.0021033373 0.001474839 0.00011166776 0.0049087014 -0.022018941 -0.03646237 -0.028874412
00000000: a088 fb3b 24ae f23c 1180 d1bb 10d2 54bc
00000010: a211 6fbb 2913 b1bc 59c7 e53c c329 12bc
00000020: a9b7 d13b f779 6f3c a0b8 f7bb cefc a53c
00000030: 0a3e c6bb 89ae 2f3c 22f7 633c faa7 85bc
00000040: 977a 33b9 5b72 513c 94ba 45bc 342c 64bc
00000050: 6695 1b3b 808c f73b 0827 8c3b 2e83 0d3c
00000060: 6d1b c53c f3b2 4cba 10f4 943c f275 353c
00000070: 4534 6cbb b42e a23a 42b7 80bc 28e8 893b
00000080: 3c8d a13b 2c0f a33c 66d5 ee3b 2169 fa3a
00000090: af09 8f3c 9073 92bc 2e28 f83b c4a2 4ebb
000000a0: 5e55 43ba 2a3c ecba 661d 10bc 594f 0a3c
000000b0: df86 b3bc a778 8e3b 937a 643a 9087 23bc
000000c0: d28a b8bc 2248 8bbc 93fa f9bb 6523 a33b
000000d0: 7d32 a3bb d4c6 2c3c 2030 56bb 1eec 66bb
000000e0: 3542 4d3c 99bd b03a 7fa2 b43b 2015 333b
000000f0: 9a77 beba 7f9b 9a3c b0e4 9e39 dd75 e33b
00000100: 3ea4 103b 438d 0a3c 9d85 883b 4588 fd3b
00000110: 0c72 42bc c1e2 633c 46f2 e7bb 4c5a cc3c
00000120: 944b 423c 7d15 113c 21f6 c83b bf23 9bbb
00000130: 1abd 9abc d08b 2c3a 8167 ba3c 300a 293b
00000140: 2ba8 d1bb a056 8f3b dadb d4bb c5cc 5d3c
00000150: f2dd 413b 06e8 1bbb ace8 65bc 5107 3bbc
00000160: 88f2 5b3b 592c 53bc ff52 05bc a7c2 cbbb
00000170: 52eb b03c 0dd2 a8bb 18e3 d439 773f 8f3c
00000180: f310 dc3b 8c04 1a3c 8788 d43c d255 ff3b
00000190: 4abe 9b3c 3deb 323c aa48 65bc fdb7 adbb
000001a0: 47e9 6fbc 69f7 9f3c 77d3 903b 53ef 463b
000001b0: a10e b73b fa20 4abc 9237 213c ee2f 893b
000001c0: cfc0 b73c 9ed5 923a 4335 fa3b 102f 913c
000001d0: 218b 94bb 9948 6a3b 9339 eb3b 04b3 843b
000001e0: 0d2d c13b ef0e deba 45fa 113c 36c9 a23c
000001f0: 334d a9bc c9b3 8c3c 3c0b a5bb f71f d63c
00000200: 826d 12bb 3f0a a0bc b609 3cbc 8151 333c
00000210: bf2a c33c d01c deba 6dc5 5cbc 1820 813c
00000220: 38bf db3b 2041 9dbc b0aa b73b cb90 273c
00000230: 5881 fa3c a2c9 d13b 003f 16bd a9a3 eaba
00000240: f019 b53b 66d6 88bc 85ab 32b9 22d5 38bc
00000250: 8b0b d63b 9c84 cbbc 1baf 7bbc 6e02 f83b
00000260: a078 0dbd fe29 3cbc 5e7c d9ba 7a3a 07bc
00000270: 76ca d63c cb86 3ebc 727e 98bb e10d 76bc
00000280: ea26 0b3a 29e5 7e3a 4bbc 843b 4aec df3c
00000290: 63c2 1abd 01ba a03c 4ea9 9cbb 1db8 2fbc
000002a0: e3da 70bc 1ef9 faba bbc9 1e3c 6e4a d6bb
000002b0: 88b2 3ebc 60bc 65bb dcc7 6f37 a9fe 0c3c
000002c0: 98a2 89ba 8c90 b03a f603 1e3c d9bb 35bc
000002d0: 2a7c 4fbc 46f7 2abc bc86 72bc e0e5 69bc
000002e0: e970 14bc 6815 9e3b 5de4 24bc 74bf cfbb
000002f0: 5294 9c3b 9ad1 e0bc f73a b6bb a4de ecb9
00000300: f6a7 a1ba 4ae6 1f3b f85d a93b c747 7dbc
00000310: ea85 1bbc 9c2b 01bd b038 8bbb 89b0 7ebc
00000320: 2745 463a 8e7f 7ebb 7f0b fabb 7821 903b
00000330: 2823 0a3c 7b79 073c 89c5 fdbb 020e a43b
00000340: fba2 af3c adfc 6dbb a8e1 4c3c ab48 b8bc
00000350: 28c1 b63c 90ed 14bb 625f 363b 3731 c53b
00000360: e1ee c23b a30a c03b 714b 513c d95d 45bb
00000370: 7c1b ebbb 7961 88bb 3f17 f9ba 5878 06bc
00000380: 1841 d8bb 3346 29bc 2aea 9eb8 c6e8 c13b
00000390: e6e7 0bbc 7512 6dbc 5171 a2bb dac5 363b
000003a0: 40e7 d13a 859a 72bc 4fc0 363c b639 43bc
000003b0: 1279 da3b 8893 243b ee32 99bc 98d2 aebb
000003c0: 889a e5bc 3ad5 2b3c 29f3 12bd 7b53 8539
000003d0: 09a3 90bb 6211 0cbc a9ac 79bc 35e1 09bc
000003e0: c130 0e3a 25d8 09bb 634f c13a 2c2f ea38
000003f0: 2cd9 a03b 1161 b4bc 9159 15bd 088a ecbc

action_model._discrete_distribution.branches.0.bias f4 [7]
0.008321056 0.008170432 0.00028118826 -0.0028793018 -0.002972548 -2.8061168e-05 -0.009039921
00000000: 0a55 083c 47dd 053c 736c 9339 abb2 3cbb
00000010: 14cf 42bb e664 ebb7 2d1c 14bc
